CartPole/code/DQN_CartPole-v0.pt (torch_old, 166886 bytes, 20 tensors)

conv1.weight f4 [16, 3, 5, 5]
000000 b1 8a 50 3d 51 8f c1 3f 38 0e b0 bf e1 ea 00 40
       0.050913516 1.5121862 -1.3754339 2.0143359
000010 df bb ca 3e c7 4b 1e bf a7 5b a2 c0 73 77 ae bf
       0.3959646 -0.6183438 -5.073688 -1.3630203
000020 68 d3 8b 3c 02 16 6e c0 08 13 89 3f 5a 28 19 40
       0.01706858 -3.7200933 1.0708933 2.3930879
000030 da bc ba bf 2e 13 0d 3e ec db 40 40 6d 79 58 3f
       -1.4588883 0.13776848 3.013423 0.8456028
000040 76 4e 49 40 ba 7a 1e 40 a1 dc 30 c0 3d 69 90 be
       3.1454139 2.4762406 -2.7634661 -0.2820529
000050 2e c1 b2 bf 78 2d c4 be ce 57 47 3f af e6 8d 3f
       -1.3965204 -0.3831594 0.77868354 1.1086024
000060 d4 99 23 40 45 d7 62 3e 53 14 04 3f 8d b4 3a be
       2.556264 0.22152431 0.5159351 -0.18232937
000070 c7 fa 88 3f 4d 72 f3 3d b9 b9 d4 be aa b4 9f c0
       1.0701531 0.118870355 -0.41547945 -4.9908037
000080 66 17 d0 3f a9 3a 06 bf e9 27 85 c0 10 21 67 3f
       1.6257141 -0.5243326 -4.161122 0.90284824
000090 5d 06 40 40 be e5 53 bf c1 dc 34 bf c2 52 5b 40
       3.0003884 -0.82772434 -0.70649344 3.4269261
0000a0 f2 d4 12 3f 83 7e 14 40 5c 5e 04 40 25 f4 e7 bf
       0.5735618 2.3202217 2.0682592 -1.8121382
0000b0 16 53 1d 3e 2a 82 6c bf e1 22 03 c0 86 7f ec 3e
       0.15363726 -0.92386115 -2.0490038 0.46191043
0000c0 a5 d5 ac 3f 27 17 a0 3f a6 80 ff 3e 23 7f 2d 3f
       1.3502699 1.2507066 0.49902838 0.6777212
0000d0 56 f0 34 3f 03 05 8e 3f f1 84 1b bf 81 ff 78 bf
       0.70679224 1.109528 -0.6074973 -0.9726487
0000e0 56 1b 88 c0 e1 11 4d 40 ab 51 8c bf 2c 44 94 c0
       -4.253337 3.2042162 -1.0962423 -4.633322
0000f0 d4 2f 52 3f ce 8e 4e 40 ca 37 b6 bf de 85 39 bf
       0.8210423 3.227466 -1.4235775 -0.7246989
000100 26 27 70 40 7f 0e 53 3f 96 2f a5 3f d4 49 59 3f
       3.7523894 0.82443994 1.2905147 0.8487828
000110 10 f2 1a bf bf c1 0a be f5 74 06 c0 e5 04 01 c0
       -0.6052561 -0.13550471 -2.1008885 -2.0159237
000120 d6 20 65 3e 56 9c e6 3f f9 9c 43 3f 11 14 6c bf
       0.22375807 1.801646 0.76411396 -0.9221812
000130 43 a9 b2 3e b6 ed 6e c0 6b c4 ae 3f d6 fe e2 bf
       0.3489476 -3.7332587 1.3653692 -1.773402
000140 d5 85 2c bf 88 27 a1 3e 40 e8 48 40 b6 51 8e c0
       -0.6739171 0.31475472 3.1391754 -4.4474745
000150 b3 ec 8e c0 5b 00 e2 bf 8f 14 d5 bf bd df c6 3e
       -4.466394 -1.7656358 -1.6646899 0.38842574
000160 84 5f a7 bf 55 eb 3b 40 ed f3 f3 3f 8a 30 09 3c
       -1.3076024 2.9362385 1.9058815 0.008373389
000170 30 19 1c 40 97 4d 9c 3e c0 49 70 c0 a6 39 17 bf
       2.4390373 0.30527946 -3.7545013 -0.5907234
000180 2d e6 ed 3d 1b ff ea bf b9 11 47 3f 1b 6d 4b 40
       0.11616168 -1.8359102 0.7776142 3.1785343
000190 77 8c cf bf ed c8 a9 be 89 73 30 c0 28 5c 60 3f
       -1.6214741 -0.33161107 -2.7570517 0.8764062
0001a0 52 8a ca bf 86 47 23 3e b3 d9 f3 be 23 a5 08 40
       -1.5823462 0.15945253 -0.4762703 2.1350791
0001b0 64 f2 70 c0 f5 07 7e c0 c2 a6 a7 bf ec 77 6b bf
       -3.7647943 -3.9692357 -1.3097765 -0.9197986
0001c0 46 45 b4 be c9 d9 c4 bf 61 dd 4e 40 6c 0a 8f 3f
       -0.352091 -1.5378963 3.232262 1.1175056
0001d0 f9 6e d3 3f 07 ed 6b 3f f8 7f 00 40 9e 61 d0 bf
       1.6518241 0.9215855 2.0078106 -1.627979
0001e0 5d 92 0a bc 4c 93 a3 be 02 4e 88 bf da 6b c5 3f
       -0.008457747 -0.31948316 -1.0648806 1.5423539
0001f0 bf 83 40 40 8f 27 be bf cb bc 4d bf fe 67 3b c0
       3.0080411 -1.4855822 -0.803662 -2.9282222
000200 87 70 90 3f a4 5b f0 bf d9 b7 a5 be 3a 2a 83 bf
       1.1284341 -1.8777966 -0.32366827 -1.0247262
000210 e1 65 0a 40 94 b9 59 c0 d2 3c 7d c0 5b fb 83 bf
       2.1624682 -3.4019518 -3.9568372 -1.0311083
000220 60 5e 54 bf 38 94 c1 bf a0 a5 70 bf 65 e5 70 40
       -0.82956505 -1.5123358 -0.94002724 3.7640011
000230 f0 15 95 3f 36 9a 0f 40 e1 eb e4 3d 36 52 3b 40
       1.164732 2.2437873 0.11177803 2.9268928
000240 64 7a 0e bf 5a 09 ca be e6 e7 26 3f 31 57 36 bf
       -0.55655503 -0.3946026 0.651976 -0.71226794
000250 f3 46 c0 3f 4c 21 45 40 49 70 ce 3e 46 39 a2 c0
       1.5021652 3.0801573 0.40320042 -5.0694914
000260 49 7f b1 3f 3b 42 15 3d 82 81 29 40 36 80 b8 3f
       1.3866969 0.036440115 2.6485295 1.4414127
000270 8c 17 94 c0 02 ba 14 3e a4 a5 f3 3d bd d0 5f 40
       -4.6278744 0.14524081 0.11896828 3.4971154
000280 49 95 a6 3f 3e 47 00 c0 d9 0d 20 40 ec dd 0a 3e
       1.3014308 -2.0043483 2.5008452 0.13561219
000290 8e 39 7f bf f4 04 d2 3e 47 cf 19 c0 ce 22 e6 3f
       -0.99697196 0.41019404 -2.4032762 1.7979372
0002a0 bf 84 44 40 de a5 13 c0 36 41 28 40 98 fb 87 bf
       3.0706022 -2.3069987 2.6289802 -1.0623655
0002b0 42 0b 49 40 0b ad 01 40 8c fa 3a c0 37 92 d1 bf
       3.1413121 2.0261867 -2.9215422 -1.6372746
0002c0 32 10 84 c0 2c a8 9b 3e f1 09 9a 3f 7c 4a 7b 40
       -4.126977 0.30401742 1.2034284 3.9264212
0002d0 db 2a 73 bf 9a 80 7f c0 b8 ba a9 3c 11 13 0b 3f
       -0.9498727 -3.9922242 0.020718917 0.5432597
0002e0 3f 10 7a 40 40 94 d2 bf db 2f aa bf e2 d6 72 3f
       3.9072416 -1.6451492 -1.3295854 0.94859135
0002f0 d7 cf 18 3f c2 62 06 3f 22 b0 94 bf 3a f8 99 be
       0.5969214 0.5249444 -1.1616251 -0.30072194
000300 3c 6a ea 3f 5f a4 32 40 d9 7e 8d bf a5 96 2d 3f
       1.831367 2.7912824 -1.1054336 0.6780799
000310 8d 97 2f 3f 04 27 02 40 24 09 89 3f d3 4a 18 c0
       0.68590623 2.0336313 1.0705914 -2.379567
000320 1d 94 04 c0 e3 28 5c c0 fa dd 1b be bf 4a f3 3f
       -2.07154 -3.4399955 -0.15221396 1.9007186
000330 b6 14 91 40 ae 36 ce bf 01 79 44 c0 d4 73 c1 be
       4.533778 -1.6110437 -3.0698855 -0.37783682
000340 70 4a 08 3f 9c 7c 7e 40 55 38 01 c0 a4 70 38 bf
       0.5323858 3.9763556 -2.0190632 -0.72046876
000350 f7 77 9f be dd d5 75 3f 8d 67 68 3f fa 6b eb bf
       -0.31146213 0.96029454 0.90783006 -1.8392327
000360 32 09 2e 3f 46 e4 a8 3f 24 e7 0b 40 38 e7 09 bf
       0.6798278 1.3194664 2.1859827 -0.53868437
000370 3f 89 ae 3e 2c 3c 30 3f e0 1b 67 3f 2b 4a fd 3e
       0.34089085 0.68841815 0.9027691 0.49470648
000380 b4 01 13 c0 31 93 37 c0 e9 19 54 3f 75 c1 22 c0
       -2.296979 -2.8683589 0.82852036 -2.5430577
000390 c6 ae 50 40 aa 1c b6 3f 2e e3 10 3e f7 99 d4 3e
       3.2606673 1.4227498 0.14149162 0.41523716
0003a0 1d a6 0c 40 2c 46 87 c0 8e 25 0c 3f 5e 93 ee 3f
       2.1976388 -4.227316 0.54744804 1.8638723
0003b0 f4 fb 40 c0 ea 7e f5 3f c7 6c 80 40 79 24 08 c0
       -3.015378 1.9179356 4.0132785 -2.127226
0003c0 72 8f 19 bf 36 07 9d 40 09 9e 7a 3f 91 b1 7a bf
       -0.59984505 4.9071302 0.9789739 -0.97927195
0003d0 bb cb 65 3f ca d1 2e bf cf 3a 5b c0 b3 76 bf bf
       0.89763993 -0.6828886 -3.4254644 -1.4958099
0003e0 e3 12 1e 40 66 63 51 bf 62 e0 bc bf 91 d7 0e 40
       2.4699028 -0.81792295 -1.4755976 2.2319071
0003f0 22 7b b4 be db e0 e1 3f 9f f9 18 3f 37 59 0a 40
       -0.35250193 1.7646745 0.5975589 2.1616952

conv1.bias f4 [16]
000000 5c 6e e1 be a5 32 02 40 ef c0 ac bf 2a d6 16 c0
       -0.4402951 2.034341 -1.3496379 -2.3568215
000010 35 ad 9a c0 3d 0a 2e c0 80 20 17 c0 e6 7e ec bf
       -4.8336434 -2.719375 -2.3613586 -1.8476226
000020 a8 ff 21 c0 0c 5a 3d 3f 58 bf 04 c0 e8 10 49 c0
       -2.531229 0.73965526 -2.0741787 -3.1416569
000030 e0 a9 e7 3e 7c 63 8c be 02 b8 03 c0 af f4 5c 40
       0.45246792 -0.2741965 -2.058106 3.4524343

bn1.weight f4 [16]
000000 dd ad ad 3f 6f 62 a1 3f 8f 5e 01 40 21 3a ba 3f
       1.3568684 1.2608165 2.0213964 1.454899
000010 49 fd 2b 40 e0 81 93 3f 9f 3b 3c 3f 20 05 14 40
       2.6873343 1.152401 0.73528475 2.3128128
000020 6e 2d 1f 40 4e c3 b8 3f b6 f2 b5 3f d5 f5 00 40
       2.4871478 1.4434602 1.4214694 2.0150044
000030 ea 06 09 3a f5 95 24 40 e5 8c 6e 3f 61 4f 4d 40
       0.00052271655 2.5716527 0.9318374 3.20797

bn1.bias f4 [16]
000000 21 56 71 3f 2b 35 99 3f e2 88 a8 c0 bb 2b 04 40
       0.9427205 1.196935 -5.2667093 2.065169
000010 02 88 1b 40 a7 b4 6f 3f 18 ec 7f 3f e0 a5 43 40
       2.4301763 0.9363503 0.99969625 3.0569992
000020 1b 5b 58 c0 a2 cd 88 3f c8 7a ee bf 64 0b 53 c0
       -3.3805606 1.0687754 -1.863122 -3.2975702
000030 c4 25 59 bd 22 88 e5 3f 41 0f 88 3f 6d 61 1f c0
       -0.05301453 1.793217 1.0629655 -2.4903214

bn1.running_mean f4 [16]
000000 cc 9c ec be 7e e3 01 40 b1 98 ac bf dd 5f 15 c0
       -0.46213377 2.02951 -1.3484098 -2.333976
000010 0c 3c 9a c0 22 55 2e c0 9c fd 16 c0 d2 40 eb bf
       -4.81983 -2.723946 -2.359229 -1.8379157
000020 b6 cb 21 c0 19 b8 3e 3f 91 0f 05 c0 a9 e6 49 c0
       -2.5280585 0.7449966 -2.079075 -3.1547034
000030 15 93 e7 3e df f5 9c be d5 b1 02 c0 e8 0c 5c 40
       0.45229402 -0.30656335 -2.042104 3.4382877

bn1.running_var f4 [16]
000000 9d e9 9d 3d c0 05 eb 3d c4 95 a7 3f a6 66 be 3d
       0.07710574 0.11475706 1.309258 0.092969224
000010 3c 0c a6 3d 9c 56 43 3e d6 d0 0e 3f f1 0f 88 3d
       0.08107802 0.19076008 0.5578741 0.066436656
000020 d8 b1 97 3e 2b ad 25 3e 3f f3 ac 3e 0f 69 5f 3f
       0.29627872 0.1617934 0.33779332 0.8726968
000030 bf 0c 00 3d 57 b3 d5 3d 7c 57 bf 3e 4e 0a a7 3d
       0.031262156 0.10434597 0.37371433 0.08156262

conv2.weight f4 [32, 16, 5, 5]
000000 a4 66 2d 40 54 28 a2 3f ea 53 0c 3f 94 c9 d0 be
       2.7093897 1.2668557 0.5481554 -0.40778792
000010 1e 72 fe 3b f5 10 d6 3f 67 4b dd 3e 13 76 30 3f
       0.0077650687 1.6723925 0.4322159 0.68930167
000020 33 d9 23 40 00 16 34 3e 2a 28 dd bf 70 36 d5 bf
       2.5601318 0.17586517 -1.7277882 -1.6657238
000030 f7 86 3a 40 7d f6 11 c0 98 13 1b 3f a8 b4 81 c0
       2.9144876 -2.2806695 0.6057677 -4.053303
000040 17 3a a5 3f a4 e6 1d 40 43 93 95 3f ef 9d 8e c0
       1.2908353 2.4672022 1.1685566 -4.456779
000050 db 31 4e c0 e8 8c 29 3f 4a 52 35 40 49 48 46 be
       -3.221793 0.6623063 2.8331475 -0.19363512
000060 09 95 bb bf 79 53 8f 3d 19 f3 c3 bd d7 ee 13 bf
       -1.4654857 0.06998343 -0.095678516 -0.57786316
000070 63 88 75 3e d8 12 2b be ce b9 1a c0 5f b7 ea 3e
       0.23977809 -0.16706407 -2.4175906 0.45843026
000080 ce 90 24 3f 84 31 2b c0 6f e7 bf bf 1d 92 0c bf
       0.64283454 -2.6748972 -1.4992503 -0.5491045
000090 eb d7 54 3f 82 f5 a8 be b6 3e 8b c0 ec 61 b3 3f
       0.83141965 -0.32999808 -4.351405 1.4014258
0000a0 30 ea 0c 40 ec 7e 9b c0 d2 28 06 bd 75 12 2c 3e
       2.2017937 -4.8592434 -0.032753773 0.16803916
0000b0 f0 11 22 3f 1c ce 3e c0 fc 72 e8 3f d0 b3 8d 40
       0.6330862 -2.98133 1.816009 4.4282
0000c0 d4 f3 ed be 76 ef 30 3f e7 57 16 3d b6 97 80 c0
       -0.4647509 0.6911539 0.036704924 -4.0185194
0000d0 8f b0 88 3f b8 3f 64 c0 f7 f6 a4 bf 4b 90 6e c0
       1.0678881 -3.566389 -1.2887868 -3.727557
0000e0 2d 1d 55 c0 d1 9f 89 c0 a5 be b1 bf 9d 77 0c 3e
       -3.3299057 -4.300759 -1.3886305 0.13717504
0000f0 2e 0a 63 c0 08 58 5e c0 30 65 ba c0 55 7f b4 3f
       -3.5474963 -3.474123 -5.824852 1.4101359
000100 e7 e1 20 bd a0 ac c2 bf 89 f5 86 c0 73 8c db c0
       -0.039277937 -1.5208931 -4.2174726 -6.8608947
000110 12 0a dd be df 15 24 3e cb 41 10 c0 86 34 15 c0
       -0.43171746 0.16023968 -2.2540157 -2.3313308
000120 57 fc b9 c0 36 d3 ab 3f cb eb 35 be 67 24 d7 c0
       -5.812053 1.3423831 -0.17765729 -6.7231936
000130 57 6c 36 3f 7b ef 30 40 1d bc bf be 40 5e 88 bf
       0.71259063 2.7646167 -0.37448207 -1.0653763
000140 52 12 62 bf 11 f7 7e c0 c3 09 b6 bf e8 1e 87 bf
       -0.88309205 -3.9838297 -1.4221729 -1.0556307
000150 50 f5 22 c0 db 4c 16 3b 2c 91 82 be a8 31 38 c0
       -2.5462227 0.0022933993 -0.25501382 -2.8780308
000160 3b 87 b6 bf 68 f0 3f 3f f3 82 0b 40 cb 1a e8 3f
       -1.4260019 0.74976206 2.1798675 1.8133177
000170 0e 96 44 c0 9b 5e bc c0 2a b5 f8 3e 24 3b ce be
       -3.0716586 -5.8865485 0.48575717 -0.40279496
000180 b0 74 38 bf bb f3 2e 40 c3 0c 11 c0 4f ef 1b be
       -0.7205305 2.7336261 -2.266404 -0.15228008
000190 7d fc 2c 3f 49 33 67 c0 31 f5 c8 bf c1 3a 17 40
       0.67572767 -3.6125052 -1.5699826 2.362961
0001a0 4d a0 36 c0 25 40 43 c0 3f 73 7f 3f 47 36 7f bf
       -2.853534 -3.05079 0.99785227 -0.99692196
0001b0 8f b2 da bf 0d 1a 8d 40 d7 9f 0f c0 85 d9 1d be
       -1.7085742 4.40943 -2.2441308 -0.15415008
0001c0 05 60 2b c0 97 30 d7 3f f3 ec bc be a1 1a 2e 3f
       -2.6777356 1.6811703 -0.36899528 0.6800938
0001d0 c7 e4 03 40 e6 19 93 bf 84 6f 20 3f 2c 98 45 c0
       2.0608385 -1.1492279 0.6267016 -3.0874128
0001e0 5b 89 16 40 c7 b4 a9 bf ce 91 c2 c0 d7 c5 18 40
       2.3521335 -1.3258294 -6.0802984 2.3870752
0001f0 b5 e9 28 3f 5f ec 4d be 79 fe e6 bf 38 03 06 3e
       0.6598161 -0.201097 -1.8046409 0.13087165
000200 8f 4e 20 bf ba 7f 59 40 ec 73 fa 3f 4e 69 9a c0
       -0.6261987 3.3984208 1.9566627 -4.8253546
000210 ee 5c a4 bf 75 e8 55 3f 5a 73 8a 3d 06 be 11 c0
       -1.284086 0.83557826 0.06760283 -2.277223
000220 14 de a5 3e 6e 9b 0f 40 d2 c0 03 c0 fc ef 60 3f
       0.32395995 2.2438617 -2.0586438 0.8786619
000230 cd 70 33 bf 53 4e 2b 3f 05 d0 cb bf 78 72 2f 3f
       -0.70093995 0.6691639 -1.5922858 0.6853404
000240 8d 05 f5 3f 08 c2 3b 3f cf 32 e4 3f 81 ae 3f c0
       1.9142319 0.73342943 1.7828006 -2.9950259
000250 91 f1 82 c0 44 eb 94 bd d3 dc 5a c0 93 0f b0 bf
       -4.091988 -0.07271436 -3.419728 -1.3754753
000260 6a 79 27 c0 6d 95 02 c0 8f 94 a6 be 65 cf f1 c0
       -2.6167855 -2.0403702 -0.32535216 -7.5565667
000270 cc a7 2f bf 5a 81 e2 3e ce b8 8e 3f 84 b2 89 3f
       -0.6861541 0.44239312 1.1150148 1.0757604
000280 88 1d a2 c0 60 fc 33 bf 3f 7b 21 bf d2 67 02 bf
       -5.066105 -0.7030697 -0.63078684 -0.5093967
000290 88 0d 38 bf 8e fd fa bf f4 5c 30 c0 a3 0f 78 be
       -0.7189565 -1.9608629 -2.7556734 -0.24224715
0002a0 bb 42 b6 be 2b cc 97 3f 6b d8 15 40 77 28 f9 be
       -0.35597786 1.1859182 2.341334 -0.48663685
0002b0 f7 3c a2 bf 3b bd 87 3f e8 20 7b 40 34 74 81 bf
       -1.2674855 1.0604624 3.9238834 -1.0113587
0002c0 44 a1 ad bf 10 ec 7d 3d 49 33 8f 3f f6 00 61 bd
       -1.3564839 0.061992705 1.1187526 -0.054932557
0002d0 63 02 c9 3f 18 e4 bb 3f e0 22 26 c0 66 d8 99 bf
       1.5703853 1.4678984 -2.5958786 -1.2019165
0002e0 6a 79 13 3f b7 ba 17 c0 40 bd 00 40 bb 98 82 bf
       0.5760714 -2.3707712 2.011551 -1.020286
0002f0 65 4f 50 40 e7 0b da be 9b 45 fd 3f 5d 00 4f c0
       3.2548459 -0.42587206 1.9786867 -3.2343972
000300 86 aa 01 c0 89 02 20 40 d0 cc 14 bf b3 75 20 40
       -2.026033 2.5001547 -0.5812502 2.5071838
000310 4d c0 ba 3f e7 7e 66 c0 da 57 09 40 8d 11 24 3f
       1.4589936 -3.6014955 2.145987 0.6408928
000320 ba 36 65 bf 36 5e d6 3e f9 fa f1 bf e6 4d d7 3f
       -0.8953663 0.41868752 -1.8904716 1.6820648
000330 10 50 b2 3f 00 ec 6a c0 a5 bd 91 3f 02 44 2a c0
       1.3930683 -3.6706543 1.1386 -2.6604009
000340 a5 a2 a3 be 5b 95 96 bf 51 f1 0b 3f eb 86 1c c0
       -0.31960025 -1.176433 0.54665095 -2.4457347
000350 a6 99 2d 3f 20 58 bf be f4 e5 1d bf 34 f1 1f 3f
       0.67812574 -0.37371922 -0.61679006 0.6247742
000360 e7 28 11 40 13 ad ca be a3 6d 18 bf 83 1f a0 40
       2.2681215 -0.3958517 -0.5954229 5.0038466
000370 94 b8 4f c0 62 a2 3d bf 89 56 f6 bf 48 65 39 c0
       -3.2456408 -0.740759 -1.9245158 -2.8968067
000380 aa 96 03 3f f4 94 0b 40 21 8a 17 bd cf fd ed 3f
       0.5140177 2.1809664 -0.036996964 1.8593081
000390 76 3c 0e bd 97 20 32 40 15 ae 94 bf 4d a0 e0 be
       -0.03472563 2.7832391 -1.1615626 -0.438723
0003a0 23 e6 e4 3f 1e 40 95 3e 80 2b ca bf 8d 12 74 3e
       1.7882732 0.2915048 -1.5794525 0.23835202
0003b0 2a a2 c2 bf ef af 14 3f bc 29 ab 3f 2a ae bb 3f
       -1.5205739 0.58080953 1.3372111 1.4662526
0003c0 88 0b 3d 3f 8e 62 c0 3f 77 f7 1f c0 05 fe b8 bf
       0.7384572 1.5030077 -2.499479 -1.4452521
0003d0 b2 8f 3f 40 d2 31 23 c0 e6 00 3d c0 09 77 93 3f
       2.9931455 -2.5499158 -2.9531798 1.1520702
0003e0 37 fe bb 3f be 6f f6 bf d0 bf c7 be f5 91 1f 40
       1.4686955 -1.9252851 -0.3901353 2.4932835
0003f0 35 64 95 bf 3e 5c 71 c0 2d 42 7e 3e c4 d1 41 3f
       -1.1671206 -3.771255 0.24829932 0.757107

conv2.bias f4 [32]
000000 96 a5 e1 3e b7 a9 43 bc 48 4a 44 be 43 0a cb 3d
       0.44071645 -0.011942319 -0.19168961 0.09914067
000010 77 fa 99 3e a8 d8 7e 3e 86 71 1a bd 5d 52 01 bf
       0.30073902 0.24887335 -0.03770592 -0.505163
000020 8d 98 e2 bf 28 2c 07 be 21 ce 4d 3f 0a 3f b1 3e
       -1.7702805 -0.13200438 0.8039265 0.34618407
000030 a0 51 7d ba f3 87 b0 3b 15 bb 08 bd d8 1d 01 bf
       -0.0009663347 0.0053873 -0.03338154 -0.5043616
000040 d6 18 a9 3e bc 49 b7 3e 48 94 73 bd 93 32 d2 be
       0.3302676 0.35798442 -0.059467584 -0.4105421
000050 d6 38 d8 3f d7 87 b7 bc 18 21 bf 3e 47 96 8b 3f
       1.6892345 -0.02240364 0.37329936 1.0905236
000060 e5 a2 85 bf 6c 1e a2 be f8 e5 7c be 49 98 13 bd
       -1.0440336 -0.31663835 -0.24697101 -0.036033902
000070 78 a6 59 3f b4 a5 07 be 20 c9 0d 3f b0 4b 65 3f
       0.85019636 -0.13246804 0.5538502 0.89568615

bn2.weight f4 [32]
000000 de f4 5a 40 41 00 0a 3c 42 ed 71 40 6e e7 a8 40
       3.4211955 0.008422912 3.780106 5.2782507
000010 60 b5 78 40 e7 6f 4f 40 bc cc bd bc de 00 10 40
       3.8860703 3.241205 -0.023168914 2.250053
000020 72 d0 bc 40 af de 58 40 f1 34 36 40 e9 a7 42 40
       5.900445 3.3885915 2.8469813 3.0414984
000030 ed 0b b6 bd 36 0c 86 3f 88 e1 cd ba 5f f8 97 40
       -0.088889934 1.0472476 -0.0015707472 4.7490687
000040 0f 55 50 40 6e d2 49 40 e7 12 90 3d ad b1 7b 40
       3.2551916 3.1534686 0.07034855 3.9327195
000050 40 ae 94 40 ec 57 03 3a 7a 29 f4 3f 5f 0a ca 3f
       4.6462708 0.0005010355 1.9075158 1.5784415
000060 fe 25 12 40 a2 7f 2a 40 9a 16 81 3f ac 39 94 40
       2.2835689 2.66404 1.0085022 4.63204
000070 ac 22 7a 40 c5 2f 69 3b b9 ae 87 bf 07 48 33 40
       3.9083662 0.0035581451 -1.0600196 2.8012712

bn2.bias f4 [32]
000000 35 8d d2 be 29 a2 87 be e8 e8 89 bf 27 35 95 bf
       -0.41123357 -0.26490906 -1.0774202 -1.1656846
000010 79 05 68 bf 77 03 2c bf 09 b6 3c bf 67 2e a1 bf
       -0.9063335 -0.67192787 -0.73715264 -1.2592286
000020 65 72 30 3e 18 cc 6f be 15 06 33 bf d4 6e 95 be
       0.17231138 -0.234177 -0.69931155 -0.29186118
000030 f5 46 d5 be 15 ae 1a c0 0e 9e 94 bd b4 30 b3 bf
       -0.41655698 -2.4168751 -0.07256709 -1.3999238
000040 a3 2e 66 bf 0b c3 04 bf f7 dc 1e be 42 51 b1 bf
       -0.8991491 -0.5186011 -0.15513979 -1.3852923
000050 c0 d6 67 bf ab ab 3d be 79 53 04 bf a5 48 15 3f
       -0.9056206 -0.18522517 -0.5168987 0.5831397
000060 a6 01 5a bf 95 de d0 bf 6f 9e ed bf 39 68 b8 bf
       -0.85158765 -1.6317927 -1.8563975 -1.4406806
000070 02 43 8e bf 73 d6 08 be af 6d d6 bf b4 ef 1d bf
       -1.1114199 -0.13363056 -1.6752223 -0.6169388

bn2.running_mean f4 [32]
000000 4e be 22 c3 cf 67 3d c0 a7 41 3e c3 08 31 46 c3
       -162.74338 -2.959461 -190.25645 -198.19153
000010 f1 c1 82 c3 93 47 a9 c3 10 f6 a9 40 35 ba 4d c3
       -261.51517 -338.55917 5.311287 -205.72737
000020 73 80 9f c3 6c 35 94 c3 f8 0d d2 c2 7a 9f 84 c3
       -319.0035 -296.41736 -105.02728 -265.2459
000030 de d7 b6 42 40 74 0a 43 39 84 55 40 46 91 2d c3
       91.421616 138.4541 3.3361952 -173.56747
000040 82 2d c5 c2 b5 60 54 c3 8c 90 24 c2 a1 6c 73 c3
       -98.58888 -212.37776 -41.14116 -243.42433
000050 7a 30 8a c3 eb fc 8a c1 49 4d 08 c3 bd 4f 00 c3
       -276.37872 -17.373495 -136.3019 -128.31148
000060 2d 88 b7 c2 a9 c9 1f c3 25 39 27 43 9c 05 72 c3
       -91.76597 -159.78773 167.22322 -242.02191
000070 e7 8d 86 c3 4a 91 a0 c1 19 5f ed c2 1c 58 1a c2
       -269.1086 -20.070942 -118.68574 -38.586044

bn2.running_var f4 [32]
000000 8a d4 ca 45 04 a9 b5 41 a7 b4 cb 45 43 81 00 46
       6490.5674 22.707527 6518.5815 8224.315
000010 09 9b 47 46 cf 7b 2d 46 17 4f 30 44 c5 f6 1e 46
       12774.759 11102.952 705.2358 10173.692
000020 a6 44 63 46 c0 29 26 46 9e 10 b2 45 93 d7 24 46
       14545.162 10634.4375 5698.077 10549.894
000030 35 bd 89 44 67 c7 cb 45 37 8a e4 41 25 1f c4 45
       1101.9127 6520.9253 28.567488 6275.893
000040 b9 e4 d8 45 00 f6 d0 45 7f ba 13 43 1b bb d7 45
       6940.5903 6686.75 147.7285 6903.388
000050 f1 db ff 45 f7 f7 e5 42 6d 00 bf 45 06 29 dc 45
       8187.4927 114.98431 6112.053 7045.128
000060 f3 8f 96 45 12 9b f0 45 80 8a a2 45 25 3d 13 46
       4817.9937 7699.384 5201.3125 9423.286
000070 80 3b dd 45 2c cd f4 42 da 9a 7d 45 26 b6 9e 45
       7079.4375 122.40073 4057.6782 5078.7686

conv3.weight f4 [32, 32, 5, 5]
000000 8a 6c 1a c0 60 4a 2e bf ef e0 dc 3f 8f 34 16 bf
       -2.4128747 -0.6808224 1.7256144 -0.5867395
000010 c8 2d 48 c0 63 89 81 bf d7 db 5d 3e 22 6c 75 3f
       -3.1277943 -1.0120052 0.21665893 0.9586812
000020 cf ed f9 bf 59 94 30 c0 83 64 ae 3f 03 a4 e1 3c
       -1.9525698 -2.7590544 1.3624424 0.027544027
000030 ba 93 b1 3e 79 14 5d c0 28 58 5c 3f 9e c3 a7 be
       0.3468302 -3.4543746 0.86072016 -0.32766432
000040 75 4b 23 c0 77 8d 47 3f 8d 8c 90 bf f7 13 9c 3d
       -2.5514805 0.77950233 -1.1292893 0.076209955
000050 28 dd ed bf e7 f9 76 bf c8 87 07 bf 91 ad 59 be
       -1.8583117 -0.9647507 -0.5294156 -0.21257617
000060 4a 8d cb 40 18 38 59 be 77 c3 8d 3e db 49 45 be
       6.360997 -0.21212804 0.2768819 -0.19266455
000070 d9 c5 16 bd ec ab b5 bc 0d a8 58 be 65 f0 5e 3e
       -0.036809776 -0.022176705 -0.21157856 0.2177139
000080 53 82 09 be 4a 58 57 bd a4 36 33 bd 06 63 62 be
       -0.13428621 -0.052574433 -0.04375328 -0.22108087
000090 32 60 96 ba ac 5c 4f be 1d 1b 46 bc 4f bb 1c bd
       -0.001147276 -0.20250195 -0.012091425 -0.03826457
0000a0 27 ea 4f be 93 97 bc 3d e7 86 56 be 08 55 6b bd
       -0.20304166 0.09208598 -0.20949899 -0.05745414
0000b0 17 47 08 be eb 80 08 bb 88 fa 2e 3e 50 e3 4a be
       -0.13308369 -0.0020828794 0.17087758 -0.19813275
0000c0 75 ec 54 bd ee 60 f6 bd 60 7a 7f c0 6b 77 90 bf
       -0.051983315 -0.120302066 -3.9918442 -1.1286443
0000d0 f4 b0 a3 3f 64 d4 05 c0 2a dd 84 3f f9 35 66 3f
       1.2788377 -2.0910883 1.0379994 0.89926106
0000e0 5f bf 00 c0 42 1a b3 3f 6c 63 a7 3e 31 09 de bf
       -2.0116804 1.3992388 0.3269304 -1.7346555
0000f0 e8 57 23 3f ab 71 3e 3e ab 62 9a c0 a9 56 2e bf
       0.6380601 0.18598048 -4.8245444 -0.6810098
000100 d4 b2 5a bf e1 97 32 c0 bc 8c f0 3e 45 22 df bf
       -0.8542912 -2.79052 0.46982372 -1.7432333
000110 7f b4 c7 3f 27 3b 2c c0 e0 c9 a7 be 49 63 37 bf
       1.5601958 -2.6911104 -0.32771206 -0.7163587
000120 cd 28 78 40 35 37 6a 3e 33 41 a9 40 53 90 71 bf
       3.8774903 0.22872622 5.289209 -0.94360846
000130 5a 29 a2 40 d4 e0 30 40 29 ad 85 bf 1e 43 3d bf
       5.067548 2.7637224 -1.0443469 -0.7393054
000140 a9 e3 f4 3f 46 3b 51 bf cb 3c bf bd 23 08 cb bc
       1.9131976 -0.8173107 -0.09337767 -0.024784153
000150 a6 08 1e 40 20 4e 9e 3f f4 be a0 be 4e af 0a 40
       2.4692779 1.2367592 -0.31395686 2.1669497
000160 cf da d2 3f e5 68 90 40 e5 c5 16 40 6c c7 8f 3d
       1.6473025 4.5128045 2.3558285 0.070204586
000170 e8 9c 1b c0 e7 1f 4c 40 f5 f9 22 c0 7b a9 59 3f
       -2.4314518 3.1894472 -2.5465062 0.8502423
000180 8e de 9b bf d1 b8 8f bf 6d ed 6d bf 78 cf 82 40
       -1.2177293 -1.1228276 -0.9294041 4.087826
000190 9c 42 a6 3e 37 20 f1 bf c1 db 45 40 42 14 33 c0
       0.32472694 -1.8837956 3.0915377 -2.7981114
0001a0 89 f7 9a c0 2b af 0d 40 aa 0f 59 40 c2 ab 8f 3f
       -4.8427167 2.2138164 3.391581 1.1224291
0001b0 55 f4 40 c0 c4 d0 65 bf 78 ab 44 3e 2a 8a f0 bf
       -3.0149128 -0.89771676 0.19206035 -1.8792164
0001c0 95 bd 04 bf 51 e9 a1 40 54 7d 9e bf 25 95 2b c0
       -0.5185178 5.059731 -1.2381997 -2.680978
0001d0 b2 31 3b bf 1f 0b 93 3f fd e7 4c bf 4e b9 88 c0
       -0.73122704 1.1487769 -0.80041486 -4.27262
0001e0 5f 9d 0f c0 0a 3c 39 bf ea d0 64 bf d5 f0 34 c0
       -2.2439802 -0.7235724 -0.8938128 -2.8271992
0001f0 bf 0e bc c0 31 7f 32 3f 0f 55 91 3f fb f0 1a 3f
       -5.8768 0.6972533 1.1354083 0.60523957
000200 fb a5 59 c0 a3 cf e0 bf 29 7b 00 40 46 a1 bc 3e
       -3.4007556 -1.7563366 2.007517 0.36841792
000210 8a cd ef 3e d7 aa 22 40 3c a3 5d be f2 ff 83 40
       0.468365 2.5416772 -0.216443 4.1249933
000220 bf d3 5a 3e 7f 47 2a 3f 64 18 47 c0 6e dc 1c 3f
       0.21369837 0.66515344 -3.1108637 0.6127385
000230 1e a6 d2 3f 55 20 62 40 78 1c b6 3f 45 a0 30 40
       1.6456945 3.5332234 1.4227438 2.759782
000240 28 87 e2 c0 58 57 50 3e e2 2c 84 bf bd 8a ad bf
       -7.0789986 0.20345819 -1.0326197 -1.3557965
000250 9b 33 28 bd 26 a2 bc 3e df 94 b2 3e d0 d6 35 bf
       -0.04106484 0.3684246 0.34879205 -0.710309
000260 ec 12 0a 3e 4b ae 10 bf 86 d2 b8 be 16 77 37 bd
       0.1348378 -0.5651595 -0.36098117 -0.044791304
000270 98 a0 36 be 11 b6 9c be b1 bb 62 be 9e ff 3b 3e
       -0.17834699 -0.30607656 -0.22141911 0.18359229
000280 81 1e fb bd 23 d7 ad be dd 8c f8 ba 0e f3 a2 bd
       -0.122616775 -0.339532 -0.0018962879 -0.07956515
000290 d9 3e 09 bf b4 26 a6 3c a5 d9 85 be e2 7e 06 3f
       -0.5361152 0.020282127 -0.26142612 0.5253736
0002a0 b7 04 92 be 23 75 43 3e bc 1c 1f bd d2 63 96 be
       -0.28519222 0.19087653 -0.038845763 -0.29373032
0002b0 21 d0 61 3f b8 49 4f 3d ab 72 cb 3d 39 cd 0c c0
       0.88208205 0.050607413 0.099339806 -2.2000258
0002c0 2d 81 fe 3f 0f 52 12 40 48 3d 86 bf 3f f0 9a bf
       1.9883171 2.2862585 -1.0487452 -1.2104567
0002d0 f5 6a 85 bf da 97 ea bf 85 41 8b 3f a3 17 0e c0
       -1.0423266 -1.8327591 1.087937 -2.2201927
0002e0 4e 3e 12 c0 89 d5 3d bf 35 c0 c6 c0 b4 a2 60 40
       -2.2850528 -0.74153954 -6.210963 3.5099306
0002f0 9c 55 8d be 11 64 85 c0 4a 17 88 bf 1a af 31 bf
       -0.27604377 -4.168465 -1.0632107 -0.6940781
000300 a5 8a d0 be 0f a9 e4 3d f3 63 ca 3f d1 2b 5f bf
       -0.40730777 0.11165058 1.5811752 -0.87176234
000310 f1 9f 34 c0 7c e6 89 3f 1c aa 97 c0 bd 8a 11 3f
       -2.822262 1.0773463 -4.7395153 0.5685232
000320 6a 45 f1 3e 9a 20 ef bf 67 00 59 bf 00 5b b3 bd
       0.4712327 -1.8681824 -0.8476624 -0.08757591
000330 ed b9 8e bf 70 9e 0e 40 1b 08 bf bf 7e 45 75 3e
       -1.115049 2.2284203 -1.4924349 0.2395229
000340 13 3a d9 3f 5a 87 78 40 12 f1 46 40 4b 44 31 bf
       1.6970848 3.8832612 3.1084638 -0.6924483
000350 77 87 be 3e 91 46 af 3e 67 c4 45 40 0c 22 b9 bc
       0.37212726 0.34233525 3.0901124 -0.022599243
000360 08 bb dc bf da c7 d4 3f 97 dc 31 be e2 de f1 3f
       -1.7244577 1.662349 -0.17369305 1.8896143
000370 2b ac 0d 40 c7 2f 6c 3f a5 c2 04 c0 14 33 9e 3f
       2.2136333 0.922604 -2.0743802 1.2359338
000380 ef 91 aa be 1b 5c 1d 3f 43 b5 82 40 7a 1d af bf
       -0.33314463 0.61468667 4.0846267 -1.368087
000390 cc 07 d7 bf 7f f6 16 c0 62 97 93 40 57 34 1a c0
       -1.6799254 -2.358795 4.6122293 -2.4094446
0003a0 29 b1 20 3f 1a 48 09 40 2b 0f 5d 40 6c 68 9c 40
       0.62770325 2.1450257 3.4540508 4.887747
0003b0 ee ff 46 c0 ae f9 8c 3e bc ac 8d 3e 27 eb 8c 3f
       -3.1093707 0.2753424 0.27670848 1.1009263
0003c0 ee 71 03 40 62 9e a4 3f ae c6 1b 3f 76 42 8e be
       2.0538287 1.2860835 0.60850036 -0.2778508
0003d0 78 8a 8a bf f7 3c 1f 40 95 26 c7 3f d4 1c 87 bf
       -1.0823507 2.488096 1.5558649 -1.0555673
0003e0 7c a2 82 3f e5 80 1d 40 ad b3 8c 3f 97 98 70 3f
       1.0205836 2.460992 1.0992333 0.93982834
0003f0 53 19 d8 bf ce a4 21 be d7 12 12 3f 24 c4 00 c0
       -1.6882728 -0.15785524 0.5706 -2.0119715

conv3.bias f4 [32]
000000 e4 6a 49 3e 75 1f 36 3e 97 59 c8 bd 55 45 bd 3e
       0.19669682 0.17785437 -0.09782713 0.3696696
000010 92 7a 91 bf 66 1e cf bc 60 f1 f3 bf f8 ac 28 bc
       -1.136553 -0.02528305 -1.9058037 -0.010295145
000020 61 f3 c9 bc 3b 8d 8a bc 58 71 16 bc 7c 41 92 3b
       -0.024652185 -0.016913047 -0.009182297 0.0044633728
000030 4e a2 92 3d 62 d4 3d 3c 8a f8 21 3f b7 76 96 b9
       0.071598634 0.011586281 0.63269866 -0.0002869868
000040 d4 cb e3 3e f3 d9 3a bf 0d 59 be bc be 39 04 3f
       0.44491446 -0.72988814 -0.023235822 0.5165061
000050 e2 b8 af 3d d7 69 21 bf 13 b0 28 3d 85 9c c1 3c
       0.085801855 -0.63052124 0.041183542 0.023634205
000060 69 16 df b9 73 81 c2 3d ae b8 2e bf 2f 3f e8 3e
       -0.0004255057 0.09497347 -0.6825055 0.45360705
000070 7f 7b 9c bc 87 fe d6 3a 7f f5 cc bc b7 47 f6 be
       -0.019101856 0.0016402759 -0.025019405 -0.4810159

bn3.weight f4 [32]
000000 00 60 f5 3f f6 8f 5e 40 d6 ae 54 40 06 b5 23 40
       1.9169922 3.4775367 3.3231711 2.5579238
000010 a9 a9 54 40 25 ae d3 bc 9a 1e 82 40 89 65 55 3d
       3.3228552 -0.025839875 4.0662355 0.052098785
000020 00 62 4a 3d 0b 2c e5 3c 77 c8 32 3e dc 48 c0 bb
       0.049409866 0.027975103 0.17459284 -0.0058680605
000030 89 5b d2 3f 04 66 12 bb 1c 4a 36 40 f9 65 dd 3d
       1.6434184 -0.0022338638 2.8482733 0.10810465
000040 c9 06 58 40 3f 6f 34 40 0c 54 4e bc 44 b3 85 3e
       3.3754141 2.81929 -0.0125932805 0.2611333
000050 06 04 10 40 be 26 14 40 4e 55 69 bc e3 f8 28 3d
       2.2502456 2.3148646 -0.01424153 0.041252982
000060 c1 30 cc 3c e1 5d 0f 40 e9 92 1e 40 29 65 2b 40
       0.024925591 2.240105 2.4777167 2.6780493
000070 f0 17 02 3c 63 e2 d1 3c c6 08 54 3d 81 7f 49 40
       0.007940277 0.025620645 0.05176618 3.1484072

bn3.bias f4 [32]
000000 2b 56 18 c0 a9 8a 84 c0 68 79 4f c0 47 33 38 c0
       -2.3802593 -4.1419263 -3.241785 -2.8781297
000010 2d 1e 70 c0 af 1d ba be 17 84 7c c0 74 e8 90 be
       -3.7518418 -0.36350772 -3.9455621 -0.28302348
000020 1c a4 38 be 26 80 6b be 73 0e 27 bf 02 52 20 bd
       -0.18031353 -0.22998103 -0.6525642 -0.03914071
000030 89 60 e4 3f 0c 99 d5 bd 5a 7f 82 c0 2c 83 ce be
       1.784196 -0.10429582 -4.078046 -0.4033445
000040 1e b4 51 c0 69 24 76 c0 f9 5f 2f be 20 93 d2 3f
       -3.2766185 -3.8459723 -0.17126454 1.6451149
000050 fb 90 4c c0 fd 82 35 c0 09 33 43 be 3d df d0 be
       -3.196349 -2.83612 -0.19062437 -0.40795317
000060 7c a2 49 be eb bb 25 c0 10 c8 4e c0 7d 5c 4a c0
       -0.19690889 -2.5895946 -3.2309608 -3.161895
000070 b7 03 06 be b4 e6 95 be f9 64 a5 be d8 4c 79 c0
       -0.13087355 -0.29277575 -0.323036 -3.8953152

bn3.running_mean f4 [32]
000000 1d b4 6b 40 45 94 e7 40 3c 7a 90 40 b7 03 04 42
       3.6828682 7.2368493 4.514921 33.003628
000010 9f 41 86 bf ba e9 0f 41 81 41 2e 41 49 fe 9a 3f
       -1.0488776 8.994562 10.890992 1.2108852
000020 aa 05 b6 41 af 56 a5 c0 92 da 10 41 25 a5 44 40
       22.752766 -5.1668315 9.053362 3.0725796
000030 cb b6 a1 42 d8 75 86 41 15 48 08 41 30 2a d1 41
       80.85702 16.80754 8.517598 26.1456
000040 a1 2b 06 42 a1 52 b0 c0 dd 2c 88 40 4e 11 b1 c2
       33.542606 -5.5100865 4.2554765 -88.5338
000050 77 28 3e 42 3f e7 93 41 26 61 7f 41 05 d6 83 41
       47.539516 18.487913 15.961218 16.479502
000060 cf ba 0b c0 d3 3a 7e 42 22 51 d6 c1 e9 7a 7c 42
       -2.183277 63.557446 -26.789616 63.12003
000070 24 fa bd c0 66 da 44 41 a3 27 55 41 94 57 87 bf
       -5.9367847 12.30332 13.322177 -1.0573602

bn3.running_var f4 [32]
000000 0c 87 1d 45 f3 fa 45 45 56 18 44 45 38 d9 6b 45
       2520.4404 3167.6843 3137.521 3773.5762
000010 e8 9b 4f 45 89 ec 2e 42 6b 2d 61 45 f2 f5 17 41
       3321.7441 43.73099 3602.8386 9.497545
000020 89 95 18 43 17 e8 3f 41 54 3b 15 43 6f 5c 7a 41
       152.58412 11.994163 149.23175 15.647567
000030 5d 2f 87 46 71 72 9b 41 31 af 21 45 1b b8 20 43
       17303.682 19.43088 2586.9495 160.71916
000040 b6 c6 20 45 e0 14 4b 45 3b 43 b1 41 41 e4 24 46
       2572.4194 3249.3047 22.157827 10553.063
000050 99 9f 0c 45 d3 89 3b 45 7b 87 7b 41 1b de 8d 42
       2249.9749 3000.614 15.720576 70.9338
000060 03 c8 06 41 b1 86 57 45 35 fb 20 45 8c 07 84 45
       8.423831 3448.4182 2575.7004 4224.9434
000070 b8 4c b2 41 22 b1 e4 42 5d 2e 90 42 d6 43 70 45
       22.28746 114.34596 72.09055 3844.2397

head.weight f4 [2, 512]
000000 47 54 28 c0 58 ce ba 3f 4b 02 78 3e 0d ba 63 be
       -2.630144 1.4594221 0.24219625 -0.22238941
000010 6d c6 8c be 3b a9 67 c0 e0 c6 53 bf ee a7 13 c0
       -0.27495137 -3.619704 -0.82725334 -2.3071246
000020 4d 62 24 3f 9a 91 5e 3f e0 dc 16 3f 9f c2 9c 3d
       0.64212495 0.8694092 0.5893078 0.076543085
000030 c5 8b 5b 3e dc 52 8a 3d 70 8a 88 bf f0 b8 23 c0
       0.21440037 0.067540854 -1.0667248 -2.5581627
000040 57 ba 0b 3f 83 24 37 be 32 f7 26 3f ce cf 64 bf
       0.5458121 -0.17885022 0.6522094 -0.89379585
000050 d3 53 30 bd 06 e2 2a 3f 54 f7 e8 3d 67 b1 51 c0
       -0.04304869 0.66751134 0.11375299 -3.2764528
000060 47 db a6 be f0 42 97 3f ff 0f 31 c1 39 95 95 c0
       -0.3258917 1.1817303 -11.066405 -4.6744657
000070 e8 3e cb c0 e4 32 d6 c0 f8 c4 13 c0 c0 3a d6 bf
       -6.351429 -6.693712 -2.308897 -1.6736679
000080 de 9f 59 bf 94 c7 cc 3e 5c 48 df bf e8 c7 29 c0
       -0.8500956 0.39996016 -1.7443957 -2.6528263
000090 58 39 0a bf ff d7 bc c0 71 65 11 bf 99 d8 bb bf
       -0.5399375 -5.9013667 -0.5679541 -1.4675475
0000a0 41 a6 85 3e eb dd 9a bf f5 77 72 bf 3a 93 f6 be
       0.26103404 -1.2098974 -0.9471429 -0.481592
0000b0 e1 b0 af 3f 77 d9 97 c0 27 28 40 3e 78 c0 0d 3e
       1.3725854 -4.745296 0.18765317 0.13842952
0000c0 4b 42 8c 3b 79 41 0a 3f 37 17 e4 be 10 57 03 c0
       0.0042803637 0.54006153 -0.44548962 -2.0521889
0000d0 77 68 98 c0 92 b7 ec bc 4f 1d 96 bd 7a 44 f1 3d
       -4.762752 -0.028896127 -0.07329809 0.11780639
0000e0 ae 9a 02 c0 e7 9b 13 be 95 9b 7f 40 b8 bf 9c be
       -2.040691 -0.14414941 3.993871 -0.3061502
0000f0 a6 9d 78 c0 a6 42 24 c0 05 45 34 3f 11 b2 57 bf
       -3.884622 -2.566568 0.70417815 -0.8425608
000100 c2 42 67 3f b7 3d 17 3f 8f 47 2b be 37 ee 4d c0
       0.9033624 0.59078544 -0.16726516 -3.2176645
000110 dd 6e cc c0 1c 3d b1 3c 2c 10 ba be d3 16 76 3e
       -6.388533 0.021635585 -0.36340463 0.24032144
000120 bc 1a 2d bf f3 25 9b 3e 28 08 69 c0 91 25 b9 c0
       -0.6761892 0.3030239 -3.6411228 -5.7858357
000130 0d 79 3a be 5e 53 05 3f 34 b1 41 3d a7 c0 0c 3f
       -0.1821024 0.52080333 0.047288135 0.54981464
000140 e2 c7 c5 bc a0 19 28 3b 69 ca d5 3d 7f 7b ad 3d
       -0.024143163 0.002565004 0.10438997 0.08470821
000150 a8 b0 ea 3c 94 ad 7d 3d 15 08 a2 3d 1a ce db 3c
       0.02864869 0.061933115 0.07911698 0.026831675
000160 b0 66 d6 bc 3c 39 dc bc 9a ca 08 3e 2c b4 3a 3e
       -0.026172012 -0.02688276 0.13358536 0.18232793
000170 7b a4 99 3d ed 82 c3 3d b0 f3 e7 3d 27 57 03 bd
       0.07502075 0.095464565 0.113257766 -0.032065537
000180 72 fc 56 be 16 7f 71 3f c6 12 80 3d 8e 7a 7c c0
       -0.20994738 0.9433454 0.06253581 -3.9449801
000190 0e 2e 03 c1 3d 37 06 c1 ce 2f a4 be 0c 7c 5d c0
       -8.198744 -8.388486 -0.32067722 -3.4606962
0001a0 6d 17 e3 bd 67 b6 2d bf e1 7c 8d c0 6b ba 9c bd
       -0.110884525 -0.6785645 -4.421494 -0.07652744
0001b0 ca 21 0b bd f9 08 f6 be 02 a7 4a 3f 8e 10 c2 3e
       -0.03396777 -0.4805372 0.79161084 0.37903255
0001c0 e0 ad 8c 3a 10 b3 75 3c a6 3c 8b 3d 12 d9 80 3d
       0.0010732971 0.014996305 0.06798677 0.06291403
0001d0 d2 52 e3 3b 47 68 24 bc 3f ea 8c 3d 84 f3 0f 3c
       0.006937363 -0.010034627 0.068806164 0.008786086
0001e0 80 c3 5a 3b 60 29 d7 ba ae 53 8e 3d be 2a dc 3d
       0.0033380687 -0.0016415529 0.069495544 0.1075034
0001f0 8b fe b9 3d 14 bd e4 3d b2 db d6 3d 58 06 07 bd
       0.09081753 0.11168876 0.10491122 -0.032965034
000200 00 e1 b4 3d 0c 2c b4 3d 24 8b af b9 a6 90 53 3d
       0.08831978 0.08797464 -0.0003348227 0.05165162
000210 0b 78 c4 3d 9f 5a bc bd cd 93 31 3e 3f 91 8d 3d
       0.09593209 -0.09196972 0.17341538 0.06912469
000220 d3 56 f2 3d 8b a8 a6 3d 6c d9 0e 3d dd e9 a2 bd
       0.11832967 0.08137616 0.03487532 -0.07954762
000230 75 52 42 be 18 9a 33 be 00 6c ca 3d aa e5 b1 3d
       -0.18976767 -0.17539251 0.098838806 0.08686383
000240 00 d5 5d 3b b5 c0 ab bc 62 31 91 3d bb e5 b3 3d
       0.0033848882 -0.020965913 0.07089497 0.08784052
000250 f1 da 6e 3d 1d cf ce 3c 85 32 ec 3d d8 96 8d 3c
       0.058314268 0.025245244 0.11533073 0.017283842
000260 84 c3 62 3c c0 5b 49 bb c5 57 0d 3e 1f 1f bc 3d
       0.01384056 -0.0030724853 0.13803013 0.091856234
000270 56 be d8 3d fb 9f f9 3d a9 61 ae 3d 20 f9 1c 3b
       0.10583179 0.12188717 0.08514721 0.00239522
000280 c9 3a 0b 3d 60 f5 d6 ba e5 b9 9c bd 7a bc db 3d
       0.03399161 -0.0016400032 -0.07652644 0.107293084
000290 84 b2 36 bd 7a bf 96 bd 74 f7 3e be b4 31 22 bc
       -0.04460384 -0.0736074 -0.18649083 -0.009899545
0002a0 37 13 73 bd 98 ab cf 3b 9c d5 00 be 13 f4 13 3e
       -0.059344497 0.0063375942 -0.12581486 0.14448576
0002b0 53 64 74 3d 6f 11 70 bd a7 a8 61 3d 38 b3 0a bc
       0.05966599 -0.058610376 0.05509248 -0.008465581
0002c0 4d 8e 30 3d e3 33 c7 3d bc 06 c5 3d 36 e2 f5 3c
       0.04310446 0.097266935 0.09620425 0.030015092
0002d0 59 9c ad bc 19 bc a2 3b b3 ef 6c 3d 7a bd 93 3d
       -0.021192716 0.0049662706 0.057845782 0.07213874
0002e0 09 3b 49 3d f7 a8 2d 3d 35 17 ac 3d 53 b9 63 bc
       0.049128566 0.042397466 0.08402864 -0.013899165
0002f0 8f 54 a7 3c f8 95 01 bb 76 5d a6 3c a9 92 2d 3d
       0.020426063 -0.0019773226 0.020308238 0.042376194
000300 61 d2 1f 3f a1 ae fe 3e d1 93 7c 3f 6e 04 c5 3d
       0.6243039 0.49742606 0.9866305 0.096199855
000310 c0 8d d9 3d 4a 05 80 3e 11 24 cb 3f 89 7f 63 3f
       0.1062274 0.25004035 1.5870382 0.8886648
000320 58 f5 1f 3f 0e 07 1f 3f 1a 8a 21 3f 3e cb d3 3d
       0.6248374 0.6212014 0.6310135 0.103415
000330 37 05 87 3d ef f3 83 3e 10 b7 98 3f 83 5e 57 3f
       0.065927915 0.25772044 1.1930866 0.8412859
000340 97 1a 0b 3e 6f 44 8f 3d 33 f1 ad 3d 5d 1a ab 3c
       0.13584362 0.069954745 0.08493271 0.020886594
000350 51 da c2 ba 9b 8e 17 bc 0a ff c6 3d 4a 53 d2 3d
       -0.0014866089 -0.009250308 0.097166136 0.102697924
000360 05 55 9f 3d ab c4 eb 3d 6d f1 ce 3d 33 ed f1 bb
       0.07779888 0.11512121 0.10104642 -0.0073830127
000370 35 c4 1a 3d 44 99 c5 3c de 97 7c 3d 35 3c 95 3d
       0.037784774 0.024120934 0.06166827 0.07286874
000380 40 83 5b c0 67 50 e4 3d 04 c2 82 3f 66 d2 28 be
       -3.4298859 0.11148148 1.0215459 -0.1648651
000390 42 d8 50 be cb cc f3 bf 3b 8f 1e 3f b8 6d 0a bf
       -0.20394996 -1.9046873 0.619373 -0.5407367
0003a0 c0 6e f5 be d6 b5 a9 3e bc b1 9b 40 31 3c 7d c0
       -0.47936058 0.33146542 4.865446 -3.9567988
0003b0 80 70 48 c0 fe 08 b9 40 64 ff f2 3f b6 7e f2 bf
       -3.1318665 5.7823477 1.8984189 -1.8944919
0003c0 2d d9 d8 bd 73 7c d6 bd 57 e9 12 3d db bf e0 3d
       -0.10588298 -0.104729556 0.03586706 0.109740935
0003d0 a2 0e c2 3c 2c 95 a3 3d d5 95 ce 3d f5 d0 59 bd
       0.023688618 0.07987437 0.10087172 -0.053177793
0003e0 71 3a 6c bd bd 83 99 bd 2b 72 12 3c ee 30 53 3d
       -0.05767292 -0.0749583 0.008938353 0.051560335
0003f0 a5 4b c5 bd 75 8f 73 3d 32 1e c7 3d e3 79 54 bd
       -0.09633569 0.059462983 0.09722556 -0.051874053

head.bias f4 [2]
000000 24 d5 48 40 f0 4e 53 40
       3.138009 3.301693
