MNIST/nets/MNIST_MLP(10, 10).pt (torch_old, 32637 bytes, 4 tensors)

fc1.weight f4 [10, 784]
000000 3c 8e 91 bc 8a ee 75 bc 18 93 e6 bc 00 f8 ff 37
       -0.017768018 -0.015010485 -0.028146312 3.0513853e-05
000010 9e 58 9e 3c f0 d4 1c 3c 62 88 ba 3c ca ea e2 3c
       0.019329365 0.009572253 0.02277011 0.027699847
000020 10 23 50 bb 8e 91 42 bc b6 bc d7 3c 00 dd a2 39
       -0.003175918 -0.011875523 0.026335102 0.00031063706
000030 0a 5e fb 3c 6e 53 e2 bc 9c a8 47 bc 00 b4 05 bc
       0.03068449 -0.027627673 -0.012186196 -0.008160591
000040 48 8e df bc a0 1b 15 3c f6 b2 f7 3c 00 10 80 b8
       -0.027289525 0.009100825 0.030236702 -6.106496e-05
000050 5e dd ad bc 00 a0 5c bc c5 12 89 bc f8 c0 46 3c
       -0.02122372 -0.013465881 -0.016732583 0.012130968
000060 57 dc 05 3d de 1f ab 3c 66 3f f0 3c 70 01 9b 3b
       0.032680836 0.020889219 0.029327106 0.004730396
000070 2c dc ab 3c c0 f0 04 3c 48 f4 56 3c 6a 3d c9 3c
       0.02097901 0.00811404 0.013119765 0.024565417
000080 80 84 0c 3c 8a d8 d0 bc 05 d5 c5 bc ea f2 d9 bc
       0.008576512 -0.025493879 -0.024149427 -0.026605088
000090 a4 3e 62 3c 18 5b f7 bc 56 40 e9 3c 64 5c 56 3c
       0.01380888 -0.030194804 0.02847306 0.013083551
0000a0 f3 45 c0 bc 40 d3 c2 bb 54 a8 39 3c 9c ba 0c bd
       -0.023470854 -0.005945593 0.011331636 -0.034357652
0000b0 1a 06 a6 bc 0c ef b9 3c c0 de 09 bc b2 0c f6 3c
       -0.020266581 0.022696994 -0.008414924 0.03003535
0000c0 40 66 bd 3a 33 a5 04 bd a2 a2 df 3c 00 e0 18 bb
       0.0014450029 -0.03238411 0.027299229 -0.0023326874
0000d0 b0 ca d9 3b 4b 40 0b bd fa 7c dd 3c fc 7e ca 3c
       0.0066464767 -0.03399686 0.027037133 0.024718754
0000e0 cc dd 98 bc c0 af ae bc 28 e0 56 3c 2c 99 f7 bc
       -0.018660448 -0.021324039 0.013114966 -0.030224405
0000f0 d6 c6 fe 3c 30 fb 67 3c b3 24 ef bc 38 90 e1 bc
       0.031100672 0.014159009 -0.029192304 -0.02753459
000100 84 61 49 3c 43 f5 bf bc 32 01 ef 3c 80 76 ef bb
       0.012291316 -0.02343238 0.029175375 -0.0073078275
000110 80 40 fa b9 3c 21 bd bc 32 a9 8b 3c e4 4a 0b bd
       -0.00047731772 -0.023087136 0.017048452 -0.03400697
000120 00 39 db 3c 8d 08 05 3d 09 b2 03 3d 0e aa f6 3c
       0.026760578 0.032478858 0.03215221 0.030110385
000130 48 66 dd 3b 92 20 30 bc 82 dd 82 3c f8 b3 c7 bb
       0.0067565776 -0.010749953 0.015974764 -0.006094452
000140 b5 c1 b2 bc 50 f3 b2 bc c8 2b ad bc 6e 6b d5 3c
       -0.021820882 -0.021844536 -0.02113904 0.026052203
000150 00 78 55 b8 80 8c 54 3a 40 6d 8c bb e4 66 10 3c
       -5.0894916e-05 0.00081080943 -0.0042854846 0.008813594
000160 ba fe bb 3c a8 aa 9b 3c 74 48 42 3c d8 22 93 3c
       0.022948612 0.019002274 0.0118580945 0.01796095
000170 96 66 e5 3c 95 3d d3 bc 68 ca 08 3c 56 3c fd 3c
       0.028003018 -0.0257862 0.008349039 0.03091256
000180 e3 73 f7 bc 20 91 05 bd 0e db ca bc 6c db f7 bc
       -0.030206626 -0.032609105 -0.024762657 -0.030255996
000190 d0 2d 70 bb 1e 1a a7 3c c8 da ce 3c 58 86 7a 3c
       -0.00366484 0.020398196 0.025250807 0.015290819
0001a0 48 f3 b6 bb 20 2a e1 3a 6e 0c 0e bc 48 9f b4 3c
       -0.0055832006 0.0017178692 -0.008669956 0.022048607
0001b0 90 0a 30 bb d3 ab f6 bc 8e e4 ee 3c 50 59 bc 3c
       -0.0026861764 -0.030111229 0.029161718 0.022991806
0001c0 0e 83 cd bc 82 82 ec 3c c0 5d 2f ba a5 e1 9e bc
       -0.025086906 0.028870825 -0.000668969 -0.019394705
0001d0 62 b1 e0 3c d0 61 0b 3c c0 b4 5f 3a b2 11 c8 3c
       0.027428333 0.008507207 0.0008533709 0.0244225
0001e0 65 76 cf bc b2 d1 94 3c b4 4e 35 3c d8 62 10 bd
       -0.02532501 0.018166397 0.011066128 -0.035250515
0001f0 70 92 bf 3c 71 3b ef bc 3f 33 11 3d 78 c6 01 bc
       0.023385257 -0.029203149 0.035449263 -0.007920854
000200 b5 12 e4 bc c8 f6 fe bc 66 12 78 bc de 5f f7 3c
       -0.027840951 -0.031123534 -0.015141105 0.03019708
000210 61 90 0d 3d 32 f0 ac 3c e0 00 13 3b 7c 25 50 bc
       0.03456152 0.021110628 0.0022430941 -0.0127042495
000220 fe c4 f2 bc 7e 1f f2 3c f0 bb be 3b 28 9c 31 3c
       -0.029634949 0.029556032 0.0058207437 0.010840453
000230 b4 b1 05 bd 14 74 dd bb 78 2e dd 3b 0e f0 c0 3c
       -0.032640174 -0.0067582224 0.0067499243 0.023551967
000240 e2 3a 82 3c b0 90 c6 bb 90 98 ad 3b 15 cb cd bc
       0.015897218 -0.0060597286 0.005297728 -0.025121251
000250 b8 c3 a6 3c 4e a9 93 3c 78 ef 3b bc c8 0b b2 bb
       0.020356998 0.018025067 -0.011470668 -0.0054335333
000260 90 1f 76 3b 44 90 57 3c 60 c4 59 3b ac e0 b5 3c
       0.0037555434 0.013156954 0.003322862 0.022201858
000270 80 54 67 3a ba 19 e2 bc b3 82 a0 bc 39 cb 08 3d
       0.0008824542 -0.027600158 -0.019593572 0.033396933
000280 50 3d a5 bc 00 a4 87 ba 96 52 fa 3c 9b 06 07 3d
       -0.020170838 -0.0010348558 0.030556958 0.032965284
000290 e8 37 cb 3b 20 89 19 3c d2 b4 f9 3c a8 fe bf 3b
       0.006201733 0.009371072 0.03048173 0.005859215
0002a0 d0 e3 99 3b 43 f1 e8 bc 8c 96 0e bd dc 62 05 bc
       0.004696347 -0.028435355 -0.03481154 -0.008141246
0002b0 6c ea d8 3c d7 e4 83 bc f2 28 09 bd d4 65 fb bb
       0.026478969 -0.01610033 -0.033486314 -0.007672051
0002c0 8e ed 94 bc ca be 06 bd fa 44 83 bc 76 a8 fd 3c
       -0.018179681 -0.032896794 -0.016024102 0.030964117
0002d0 d0 24 9f 3c 2d 13 11 3d 20 ea 50 3c bc cf 46 bc
       0.019426733 0.035418678 0.012751132 -0.012134489
0002e0 d0 da d3 bc 3c 28 1b 3c ae 03 87 3c 0e 3f 32 bc
       -0.025861174 0.009470042 0.016481247 -0.010879291
0002f0 90 0d 98 bc 17 6d 8e bc e0 7b 5e bb e4 ca 48 3c
       -0.018561155 -0.017386002 -0.0033948347 0.012255404
000300 e0 c9 7b 3c 92 2a 6b bc e6 60 0a bd 66 75 51 bc
       0.015367955 -0.014353411 -0.033783816 -0.012784338
000310 f2 ee 1e bc 63 77 8c bc 28 a3 9d 3c 33 27 ba bc
       -0.009700524 -0.017146772 0.019242838 -0.02272377
000320 af 62 07 3d 0a a4 c5 3c f6 f6 a7 3c 5c 85 b4 bc
       0.033053096 0.024126071 0.020503502 -0.022036247
000330 9c 05 ad bb 88 5e 24 3c ee d4 0c bc c8 98 b0 bc
       -0.0052802097 0.010032304 -0.008595688 -0.021557227
000340 a4 1c 68 3c 10 21 9d 3c 2d 43 0f bd 50 6c 18 3c
       0.014166985 0.019180804 -0.034976173 0.009303167
000350 d1 1e ee bc 18 af 20 3c 60 27 71 bc a0 c7 9e 3a
       -0.029067429 0.009807371 -0.01471886 0.0012113936
000360 b0 f7 cf bc b0 70 61 3b b0 f6 44 3b 8e b0 65 bc
       -0.025386661 0.0034399442 0.0030054264 -0.014019145
000370 42 44 a0 3c bc 92 35 3c f8 3b 3f 3c a0 c1 ca 3c
       0.019563798 0.0110823475 0.0116720125 0.02475053
000380 40 23 78 3a 00 be b1 ba 75 8c ec bc 60 b6 43 3b
       0.0009465702 -0.0013560653 -0.028875569 0.0029863343
000390 10 db b8 3c 7f 05 0e 3d c0 1a 85 3b 24 af 6d 3c
       0.022565395 0.03467321 0.0040620267 0.014507089
0003a0 3a ab bc bc 30 40 f6 3b ec 50 9b bc 11 5a ef bc
       -0.023030866 0.007514976 -0.018959485 -0.029217752
0003b0 85 c5 04 3d 9c 84 08 bd 54 6a e4 bb 30 38 ce 3b
       0.03241493 -0.03332959 -0.006970683 0.006293319
0003c0 1c 04 bb 3c 7e f4 eb 3c af 07 12 bd a3 0b dc bc
       0.022829108 0.028803106 -0.03565186 -0.026861018
0003d0 30 9a 75 3c dc 5b d1 bb b0 79 1a bb 15 76 d2 bc
       0.014990374 -0.0063891243 -0.0023571067 -0.025691072
0003e0 20 7d 49 bb 68 06 da bc 1e 17 9d 3c 41 1f 0a 3d
       -0.0030744746 -0.026614383 0.019176062 0.033721212
0003f0 58 0d 61 3c 80 2d 15 bb 52 e7 0b bc 38 29 f9 3b
       0.013736092 -0.0022762716 -0.008539038 0.0076037906

fc1.bias f4 [10]
000000 aa 07 56 bc 6b 05 fa 3c bc fd 07 bd c3 ca d4 3b
       -0.013063351 0.030520162 -0.033200964 0.0064938976
000010 c6 4d f0 3c 04 2d 80 3c 06 f5 4f bc 76 3c d0 3b
       0.02933396 0.015646465 -0.0126926955 0.0063548638
000020 d7 c7 8d 3b a2 53 2a 3d
       0.0043268013 0.041583665

fc2.weight f4 [10, 10]
000000 f5 73 94 be 2f f8 fb be 56 d2 18 3e 08 dd 76 3e
       -0.28994718 -0.49212787 0.14923987 0.24107754
000010 f7 b5 4f be 75 65 70 be 68 de 2b bf e5 ef 3c 3f
       -0.20284258 -0.23476203 -0.6713624 0.7380355
000020 f5 8d 0d 3f 61 f7 25 be 68 10 03 3d 87 8f 34 3f
       0.55294734 -0.16207649 0.031998068 0.70531505
000030 fa 88 87 3e b7 c0 8b be b6 b1 ee 3e 00 bf 17 bf
       0.26471692 -0.27295467 0.46619958 -0.5927582
000040 e5 46 c3 bc 53 75 5c bf 0c e8 f6 be 46 98 85 3e
       -0.023837516 -0.8611652 -0.48223913 0.26092738
000050 c4 25 8c be de c3 c9 bd 5d 4a b1 bd cb 3c 46 3e
       -0.27372563 -0.09851812 -0.08656762 0.19359128
000060 97 82 4d 3f c3 59 e1 3e d0 c2 e4 be 6a 74 ca 3e
       0.8027739 0.44013795 -0.4467988 0.39541942
000070 ec 06 0d bf 11 3c 05 be 3a fa 02 3e 75 e3 8a be
       -0.55088687 -0.13011195 0.12790766 -0.2712666
000080 73 5e f8 3d 44 0e 7e be e5 c8 26 3f 9d 18 5d bf
       0.1212739 -0.2481013 0.6515029 -0.8636568
000090 a2 94 c3 3e 1e 99 20 3f 99 2e 16 bf 09 c4 44 3e
       0.38199335 0.6273364 -0.5866485 0.19215406
0000a0 fa 3e 46 3e 1e a6 2a 3e f0 45 1b 3d 39 4d 2a 3f
       0.19359961 0.16664931 0.037908494 0.6652408
0000b0 c4 cd bc be fe 7a fa 3d 5a bf 4b 3f 87 58 0c be
       -0.36875737 0.1223049 0.79588854 -0.13705646
0000c0 76 ec ce be 01 09 21 bf 90 66 6f 3d 94 05 2a 3e
       -0.4041478 -0.62904364 0.05844742 0.1660369
0000d0 48 1c 73 bb b0 1d 87 bd 29 2c 1b bf bd 4e 13 bf
       -0.0037095714 -0.06597459 -0.6061426 -0.5754202
0000e0 9e 06 2b bd d5 db 13 3e e4 55 a2 3e 67 49 1b 3f
       -0.041754358 0.14439328 0.31706154 0.6065888
0000f0 08 9a 69 bd 64 48 74 3f c4 09 50 be 45 a8 c3 3e
       -0.05703166 0.9542296 -0.20316225 0.38214317
000100 ea 2b c1 be 6a 0b 6f 3e 72 2c 16 bf b5 7a 9a 3d
       -0.37728816 0.23344198 -0.5866157 0.07542936
000110 67 50 ce be 8d e5 32 bf f0 aa 94 3d fe 68 eb be
       -0.40295717 -0.69881517 0.07259166 -0.4597854
000120 7f f9 24 3e 85 b8 4b 3f 6b 93 68 3f 2b b4 b6 be
       0.161108 0.7957843 0.9084994 -0.35684332
000130 b3 3e ed 3e ec f8 40 bf 07 13 16 3f 89 3f fc be
       0.46336898 -0.75379825 0.58622783 -0.49267223
000140 38 9b 81 be 69 dc 96 be 0b 10 79 bb ea 2b 01 bf
       -0.25313735 -0.29465035 -0.0038003947 -0.5045763
000150 cb 58 b6 be 7f 3e 08 3f 02 71 78 3e 13 86 87 be
       -0.3561462 0.5322036 0.24261859 -0.26469478
000160 67 95 81 be 48 f8 16 3f 96 d5 94 be f5 19 af bd
       -0.25309297 0.589726 -0.29069203 -0.08549873
000170 e4 85 9b bc 24 43 4e bf cd e9 90 3d 24 f7 7a bd
       -0.018984742 -0.805712 0.07075844 -0.061270848
000180 f7 4a 40 3f 11 75 57 be 5b c2 18 3f 49 ca 3d bf
       0.7511439 -0.21040751 0.5967156 -0.7413679

fc2.bias f4 [10]
000000 b6 2b 32 3d e4 36 e7 3e c3 0b 65 be fa 7c be 3e
       0.043498717 0.45159066 -0.22367768 0.37204725
000010 fd 0e 43 be 54 d6 d1 be af 8b 2b 3e 31 28 28 3b
       -0.19048686 -0.40983832 0.16752504 0.0025658722
000020 6b 25 4c 3e d0 9a fd bd
       0.19936149 -0.12383044
