MNIST/nets/MNIST_MLP(40, 20, 10).pt (torch_old, 130151 bytes, 3 tensors)

fc1.weight f4 [40, 784]
000000 22 de be bc dd 26 5a bc d0 33 59 3c 93 c3 bc 3b
       -0.02329928 -0.01331493 0.013256982 0.005760619
000010 fd d6 82 bc c3 c1 03 bd af 0a 02 bd d0 d6 67 bc
       -0.015971655 -0.032167207 -0.03174847 -0.014150336
000020 b9 45 d1 3b b7 ce 86 3c 83 88 44 3c 4b ed 0d bd
       0.0063864854 0.016455991 0.011995438 -0.03465013
000030 61 03 c9 bc 8e b0 38 3c 77 b5 fe bc 03 82 cb 3c
       -0.024537744 0.011272563 -0.031092389 0.024842268
000040 dc 62 f6 bc 5c 16 84 3c fb 82 fb bb 65 13 3f bb
       -0.030076437 0.016123943 -0.007675526 -0.0029155847
000050 70 86 d4 3c 8e 72 57 3c c0 9d a1 bc e6 40 29 bb
       0.025943011 0.013149871 -0.019728541 -0.0025826036
000060 ae db 01 bd a6 73 c9 3c 4c 75 8e 3c 70 08 0c 3d
       -0.031703644 0.024591278 0.017389916 0.034187734
000070 64 72 e4 3c e8 9d fd 3b d9 fb 9b bc 79 33 76 3c
       0.027886577 0.007739771 -0.019040989 0.0150269205
000080 5f d2 67 bb ae 69 0a 3d 72 ff ac 3c 34 71 44 bc
       -0.0035373194 0.03379219 0.0211179 -0.01198988
000090 ae ff 16 bd 42 5b 08 bd 17 45 b7 bc 99 db e8 bb
       -0.03686493 -0.033290155 -0.022371812 -0.007106256
0000a0 45 a9 a3 3a aa b8 c1 bb 8d d9 6e bc 47 26 50 bc
       0.0012486359 -0.0059119062 -0.014578235 -0.0127044385
0000b0 2f d4 89 bc 06 86 91 3b 54 47 4c 3c e4 c2 75 3b
       -0.01682481 0.0044410257 0.012468178 0.0037500197
0000c0 c9 58 09 3d 46 41 af 3c cf 50 cf bc 92 d2 02 3d
       0.033531938 0.02139343 -0.025307087 0.031939097
0000d0 68 26 2d 3b 32 d6 a3 3c be 4d 85 bc 37 f4 00 bc
       0.0026420597 0.019999597 -0.016272422 -0.007870725
0000e0 cf 8d 54 bc 8a c1 42 bc 96 f4 e4 3c 1b 3a 44 bc
       -0.012973263 -0.011886964 0.027948659 -0.011976744
0000f0 51 ca 88 3c 1c a8 f5 3b 81 33 8f bc d6 36 6c bc
       0.016698034 0.007496847 -0.017480614 -0.014417371
000100 6a fa 9a bc 5e 80 ec bb 0f 28 13 bd e7 5f 7e bc
       -0.018918235 -0.007217451 -0.035926875 -0.015525795
000110 b3 3a 40 bc 23 62 a5 3c 3c a7 b8 3c c8 2b 3a bd
       -0.011732745 0.020188397 0.022540681 -0.04545191
000120 e3 e2 8b 3b 3e f5 a2 3c fc b5 ea 3b 41 cb 1e 3c
       0.0042689904 0.019892331 0.0071628075 0.009692014
000130 2b e8 de 3b 49 9d cb 3c f8 e7 9b bc 32 06 cf b9
       0.006802579 0.024855273 -0.01903151 -0.00039486733
000140 34 9c d7 3c 2e 4f af bb 36 89 80 3c ce a7 08 bd
       0.0263196 -0.005350015 0.015690427 -0.033363156
000150 2a a8 32 bc e0 77 e0 3c c2 7d cc 3c 0e bd c5 3c
       -0.010904351 0.02740091 0.02496231 0.024138
000160 2b 37 be 3c e0 e6 ab bc 12 b8 85 bc 31 05 a3 bb
       0.023219666 -0.020984113 -0.016323123 -0.004974984
000170 30 78 c8 bb c2 00 13 bd 32 16 3b 3c 7e 13 3b bd
       -0.006117843 -0.035889395 0.011418866 -0.045672886
000180 95 b4 9d bc f7 ae 25 bc ce 8f 91 bc 6f fc 24 bd
       -0.019251147 -0.010112516 -0.017768767 -0.040279802
000190 f2 90 8d bd 05 75 63 bd a8 91 44 bd 49 95 24 bd
       -0.06912412 -0.05553152 -0.04799047 -0.040181432
0001a0 05 02 9d 3c 90 a6 e7 bb 23 79 22 3d 7a 1d 79 bc
       0.019166002 -0.0070694163 0.039666306 -0.015204782
0001b0 fb ff 06 3d 2d 74 4f 3c 5a 02 e1 bc 51 a2 81 bb
       0.032958966 0.012661976 -0.027466942 -0.003956117
0001c0 e3 d4 85 bc 16 a5 14 bd 58 4f 23 3c 56 8e 02 bd
       -0.016336864 -0.03629025 0.0099676475 -0.031874023
0001d0 51 c2 17 bd f4 31 bc bc 43 e0 be bc ba c0 2f bb
       -0.03705055 -0.022973038 -0.023300296 -0.0026817755
0001e0 72 ef 23 bd b7 8f f7 bc 46 bd 70 bd 3e 0d 37 bd
       -0.040023275 -0.030219896 -0.058774255 -0.044690363
0001f0 60 fc ae bd d2 7d 4a bd 2e 4b 59 bd 28 24 35 bd
       -0.085442305 -0.049436398 -0.053050213 -0.044223934
000200 b2 4f 91 bd 59 2f 9d 3b 1d ed 57 bd 2f 26 29 bd
       -0.07095279 0.004796904 -0.052716363 -0.04129618
000210 4b fe ee bc 1b ac 71 3c d1 4b bd bc 42 32 b7 3c
       -0.02917399 0.014750506 -0.023107441 0.022362832
000220 86 a4 33 3d c4 1b b4 bb 27 30 31 3c 2b f3 32 bc
       0.043858074 -0.005496474 0.010814703 -0.010922234
000230 96 d7 00 3d 17 a7 84 3c 82 5c 00 3d aa b3 5e 3c
       0.0314556 0.016192956 0.031338222 0.01359264
000240 eb 5e 9a 3c ad 3e f2 3b 06 d5 38 bd f9 c6 7f bd
       0.018844089 0.0073927254 -0.04512503 -0.062445614
000250 22 a4 a9 bd 0b 9f 8e bd 65 99 00 bd ff 43 2e bd
       -0.08283259 -0.06963929 -0.03139629 -0.042545315
000260 9e 65 95 bd 14 7a 42 bd 97 f2 af 3b d6 b4 ac bd
       -0.072947726 -0.047479704 0.005369495 -0.08432929
000270 93 be be bd 63 f9 0f bc 3e d6 68 bd d2 30 44 bc
       -0.09313693 -0.008787486 -0.056844942 -0.01197453
000280 fe 5f b2 3c 04 b3 b0 3c 76 33 03 3b 65 38 5b 3c
       0.021774288 0.021569736 0.0020019687 0.013380145
000290 b7 18 84 bc 27 11 fd 3c a8 46 17 3d 5e 3a fe bc
       -0.016125066 0.030891968 0.036932617 -0.031033691
0002a0 41 f6 f5 bc 70 33 9b bc 98 1d f2 bc d9 07 53 3c
       -0.03002465 -0.018945426 -0.029555127 0.012880289
0002b0 d0 0b 2e bd 58 c4 3a bd 43 80 7a bd cc a8 3e bd
       -0.042491734 -0.045597404 -0.061157476 -0.046547696
0002c0 2e 31 f8 bc d0 a1 8e bd 25 cf 33 bd c1 72 07 bc
       -0.030296888 -0.06964457 -0.04389872 -0.008267106
0002d0 5b b8 15 bd dd 58 65 3c 40 e0 23 3c 1c 2c 0b ba
       -0.03655277 0.013998237 0.010002196 -0.0005309002
0002e0 0a f4 6f bc 7b 79 fc bc 77 5a 24 bd 68 e2 6a 3d
       -0.014645586 -0.030819645 -0.040125336 0.057344824
0002f0 cd a5 1f bc 2d ef 22 3d 7e 94 96 3d 5b a0 26 3d
       -0.00974412 0.039778877 0.073525414 0.04068027
000300 8b c7 77 3d 6b d0 7f bb 46 78 aa bc 74 67 fb bc
       0.060493033 -0.003903414 -0.020809304 -0.030688979
000310 c3 53 d8 bb d2 eb 5e 3c 66 23 35 bc cd a2 a3 3c
       -0.006601782 0.013606029 -0.011055803 0.01997509
000320 75 4e 32 bd 26 80 49 bd 65 85 d6 bc 4c 49 01 bd
       -0.043531854 -0.049194477 -0.026186654 -0.031564042
000330 45 49 18 bd a8 0d 16 bd 5e af bf 3b 21 22 87 bb
       -0.03717925 -0.036634117 0.005849763 -0.0041239415
000340 90 e5 53 3c 34 5d d7 3c df c1 f1 3c d8 7f d2 3d
       0.01293315 0.02628956 0.02951139 0.102782905
000350 b5 e6 98 3d bb 62 1c 3d 35 cd 97 3d 73 b3 10 3d
       0.07465879 0.038180094 0.07412187 0.035327386
000360 19 54 19 3d 9e 2f 1e 3d d2 65 87 3d 6f f8 a8 3d
       0.037433717 0.03861963 0.066112176 0.0825051
000370 2c 78 97 3d 6a a3 82 3d 5e ff 35 bc 8f fe f6 3c
       0.07395968 0.06378825 -0.011108248 0.03015068
000380 c2 58 78 3c 03 11 8b bc cf f6 89 3c 7b 11 5e bb
       0.01515788 -0.016975885 0.01684132 -0.003388493
000390 86 a6 2c bd 33 a4 0b bd 9c d4 11 bd 4d 99 99 bd
       -0.042150997 -0.03409214 -0.03560315 -0.07499943
0003a0 7d 94 50 bd 40 27 a6 3c 11 00 3b bb a6 74 3e 3c
       -0.05092286 0.020282388 -0.0028533975 0.011624491
0003b0 fe 3a 53 3c d9 00 9d 3d 7c 75 95 3d 35 ee 76 3d
       0.012892483 0.07666177 0.07297799 0.060285766
0003c0 5e 18 99 3d 8a a4 86 3d 77 52 cc 3d f6 7c 1c 3d
       0.07475351 0.06574352 0.099766664 0.03820511
0003d0 5f 1f 89 3d 49 9a 61 3d a4 d7 88 3d 4e f0 93 3d
       0.06695437 0.05507878 0.06681755 0.07223569
0003e0 f4 f4 e9 3d e1 87 98 3d d5 20 d8 bc 0c b2 b4 bb
       0.11423674 0.07447792 -0.026382843 -0.005514389
0003f0 70 53 f8 3c 1f 1d d1 bc b8 8a 75 3c a4 24 c8 bc
       0.030313224 -0.025526581 0.014986686 -0.024431534

fc2.weight f4 [20, 40]
000000 26 92 24 ba d7 82 50 bc fc aa 96 bd 7b 6a 96 bd
       -0.00062778813 -0.012726507 -0.073568314 -0.07344528
000010 08 2e 3f bd 40 88 1d be 51 16 e2 3d d0 32 08 be
       -0.04667476 -0.15384007 0.11039413 -0.13300633
000020 00 2e bc bd 96 dd c0 3d 08 01 bb 3d ad 60 e8 3d
       -0.09188461 0.09417264 0.09131056 0.113465644
000030 cc aa b4 3d b8 fe 36 3d 76 e6 11 be 4d 6a e7 bc
       0.088216394 0.044676512 -0.1424807 -0.02824893
000040 b0 55 8a bd f4 2c 6e 3d 63 2e 1e be 15 c6 69 3d
       -0.06754625 0.05814834 -0.15447383 0.05707367
000050 73 65 8f bd 4a 19 13 be 94 5d e9 bd 2e 23 68 3c
       -0.07001772 -0.14365116 -0.11394802 0.014168544
000060 46 23 1e 3e 13 82 02 3e f4 1e f0 3c 27 af aa 3d
       0.15443143 0.12744932 0.029311635 0.08334189
000070 a1 eb 1b 3e 6a ec 7e bb 86 c7 0b be 5a d2 fd bd
       0.15226604 -0.0038898238 -0.13650331 -0.12393637
000080 90 cf 9e 3c 63 78 23 bd dc 2f df bd 3e 9b bc bd
       0.019386083 -0.03990973 -0.108978 -0.092092976
000090 06 9b af 3d 0c 52 fb bd 82 3a 83 bd 63 1e 13 be
       0.0857449 -0.122715086 -0.06407644 -0.1436706
0000a0 59 e6 1a 3e 1a e3 1f 3b 78 8d 05 3d f6 ab e5 bd
       0.15126933 0.0024396838 0.03260562 -0.112144396
0000b0 92 53 0b be 34 1e 6e 3d 49 12 67 3d 1c 57 1f bc
       -0.13606098 0.058134273 0.056413922 -0.009725358
0000c0 10 87 bf bd 6e 80 af 3d c6 2f 03 be 92 93 e4 3d
       -0.09351933 0.08569418 -0.12811193 0.11160959
0000d0 3a a6 9b 3d 17 f0 d6 3d 05 c6 d1 3c 5b fd 7a 3d
       0.076000646 0.10495012 0.025607118 0.061276775
0000e0 41 59 ed 3c be eb cb bd ca 30 e7 3d 43 de a0 bd
       0.028973224 -0.09957074 0.11288603 -0.07854893
0000f0 27 72 b7 bd 96 5c 29 3c 27 c4 40 bc 67 7a 0e 3e
       -0.0895732 0.010337016 -0.011765516 0.1391388
000100 d5 ce 1c bd 79 29 a2 3d a9 1e 85 3d 88 bb 15 3e
       -0.038283188 0.079180665 0.064999886 0.14622319
000110 e8 fb b6 3d 1f 62 fa bc fe 59 d6 bc 23 64 4e bd
       0.08934766 -0.030564366 -0.026165958 -0.050388467
000120 55 7c 1c be 35 07 f8 3d 55 59 9c bd 68 9c 01 be
       -0.15281804 0.1211075 -0.07634226 -0.1265732
000130 6b 32 46 bd dc 30 ff bd 12 a1 9d bd ac d4 20 be
       -0.048387926 -0.12460491 -0.07696737 -0.15706128
000140 64 42 aa 3e 84 44 47 bd 8a de ba 3e 15 d0 c4 be
       0.33253777 -0.048649326 0.3649791 -0.38440004
000150 41 8b 9a 3e 9d e3 b2 3e 99 72 45 3e 66 e7 76 bd
       0.30184367 0.3493928 0.19281997 -0.060279272
000160 f0 4f aa be 1e d6 ec 3c 45 de d2 bd cd b4 bd 3e
       -0.33264112 0.028910693 -0.10296301 0.37052003
000170 36 fc 16 be f3 3d 45 be b0 95 62 3c a9 0a 02 be
       -0.14744648 -0.19261913 0.013829634 -0.12699379
000180 63 e1 50 be f0 3c e3 3e c7 28 07 3e 4d 4d d7 3d
       -0.20398478 0.4438243 0.13199149 0.10512791
000190 ec 3a 4c 3d e8 eb 6b bc 1b 50 0b 3e d6 4f 11 be
       0.04986088 -0.014399506 0.13604777 -0.14190611
0001a0 0c ab 2c be 42 ea cc be 50 b5 04 be 62 27 dd be
       -0.16862124 -0.40022475 -0.1295979 -0.4319411
0001b0 d2 95 5a be ac 74 a9 bc 23 dd 06 3d af cd 2f bf
       -0.21346214 -0.020685516 0.032925736 -0.68673223
0001c0 15 2a ae 3e 3b 41 b6 3c 63 db 55 3c 28 cf 37 3d
       0.3401648 0.022247901 0.013052794 0.044875294
0001d0 db d7 a2 bd ae e5 54 bd 7b cd c5 3d d5 62 03 3e
       -0.079513274 -0.051976852 0.09658333 0.1283067
0001e0 9c 97 b9 3d 73 1c 88 3e d8 35 64 be 16 15 75 3e
       0.0906212 0.26584205 -0.22286165 0.23933825
0001f0 e5 6c 31 3e d8 2d aa bc 5f 7d ac be 65 5b 79 3e
       0.17326696 -0.020773813 -0.336894 0.2435127
000200 a9 61 5e be b2 74 cb 3d d9 b8 db 3e f5 66 8d be
       -0.21716942 0.09934367 0.42914465 -0.27617612
000210 eb 05 57 be 0e f5 11 bc e5 bb 8b bd d6 95 d2 3e
       -0.20998351 -0.008908523 -0.068229474 0.4112994
000220 bc f5 48 be 8b 53 d8 be 28 6f 41 bd 05 c2 47 be
       -0.1962499 -0.42251238 -0.047225147 -0.19507606
000230 e6 c7 00 3d f5 3f 1f 3d 28 42 13 bc 94 a0 63 be
       0.031440638 0.038879354 -0.008987941 -0.22229224
000240 b6 eb b6 3e 24 34 dd 3e e2 af 6b bc 2d 2f a9 3e
       0.35726708 0.43203843 -0.014385195 0.33043805
000250 a7 16 c1 3d cb 0a fc ba 0b 2e c2 3e e0 1f 95 3e
       0.09428149 -0.0019229291 0.37925753 0.2912588
000260 f2 12 af 3e f1 87 7a bd 61 7a 17 3e 3b 5e 8e bd
       0.34194142 -0.0611648 0.14792778 -0.06951567
000270 28 e3 02 3d 14 bd 45 be 53 eb 4c bd 68 cf c1 bd
       0.031954914 -0.19310409 -0.05002911 -0.09463388
000280 ab 71 cd 3c bf 4e 2c 3e dd 86 fb 3d 9e 3b d5 bd
       0.025078615 0.16826914 0.122815825 -0.10411762
000290 96 8d 6e 3e 96 59 e7 3b 54 c4 8c bc 37 88 73 be
       0.23296198 0.00706024 -0.01718346 -0.2378243
0002a0 a5 37 3b be 85 e2 0d 3d 12 9d db 3d dc 2e e0 be
       -0.18282945 0.034639854 0.10723318 -0.4378575
0002b0 fd 37 07 be 69 04 6a 3e c9 fd f3 3d cd f3 4c 3e
       -0.13204952 0.22853245 0.1191364 0.20014878
0002c0 d5 89 96 bd 32 31 00 3e fa 2d b5 3d 92 cb 8f be
       -0.07350508 0.12518767 0.0884666 -0.28085
0002d0 a4 69 da bd c0 ae 75 3d 28 4e 98 3d 49 82 72 3e
       -0.106646806 0.059981108 0.07436782 0.23682512
0002e0 b4 4d 8e bd 89 5c 69 be 5f 1a 12 be 32 f2 10 be
       -0.069484144 -0.22789206 -0.14267872 -0.1415489
0002f0 00 ab 05 be 67 6c 13 be 2a 8b eb bd ca 9c 23 3d
       -0.13053513 -0.14396821 -0.11501153 0.039944448
000300 39 82 62 3c ad a0 b1 bb d4 df 6b be 1a 92 63 3c
       0.013824993 -0.0054207654 -0.23034602 0.013889814
000310 a0 43 4a bd 5e e0 44 3e ee 62 a6 bc b2 42 33 3e
       -0.0493809 0.19226214 -0.020310845 0.17505911
000320 2b 41 a4 be 4b c3 8d 3d c7 7f ef bd 6d 97 11 3e
       -0.3208097 0.06922015 -0.116942935 0.1421792
000330 de b8 70 3e 6d 8b 95 bd 34 8b 41 bd f4 93 74 3e
       0.23508021 -0.07301984 -0.047251895 0.23884565
000340 40 6e d1 bd 94 19 6f be e9 23 fe 3e d3 e6 7d be
       -0.10226107 -0.23349601 0.49636772 -0.24795084
000350 5f e9 89 bd 82 ec 10 3e d9 ae 82 be d3 d5 37 3e
       -0.06733965 0.1415272 -0.25524023 0.17952661
000360 70 39 1a 3e 41 55 3e be 1e 9a 85 3d 20 bb 14 bd
       0.15060973 -0.1858721 0.06523536 -0.03631127
000370 b3 d7 30 bd 07 92 be 3e 10 c2 ad 3d 96 c7 a3 3e
       -0.043174457 0.37220785 0.0848428 0.3198821
000380 b0 1e 8a bd 72 10 1f 3d 28 82 8b 3e 6a e7 a2 3c
       -0.067441344 0.038834043 0.2724774 0.019885737
000390 f8 7c 96 bd 05 f0 2f 3e f2 3c 82 be 40 c5 91 3e
       -0.07348055 0.17181404 -0.25437123 0.28470802
0003a0 da 46 ae be d8 c7 19 3e ae 98 48 3d 76 72 11 be
       -0.3403843 0.1501764 0.04897373 -0.1420382
0003b0 29 ac e4 bd 8a 51 6f 3e 39 97 b6 bd 61 9e 8c bc
       -0.111656494 0.23370948 -0.08915562 -0.017165365
0003c0 ef 40 ca bd 07 bd d7 be c1 8f ae be f8 9a 9c 3e
       -0.09875666 -0.42136404 -0.3409405 0.30586982
0003d0 3e b1 0f be e0 04 00 3e 47 9d 0a bd f8 6d 21 3e
       -0.14032456 0.1250186 -0.033841398 0.15764606
0003e0 60 d1 36 3e 0b 1a 9f bd 66 94 a7 3e 0c 04 77 3e
       0.17853308 -0.07768639 0.32730407 0.24122638
0003f0 20 e9 c8 3d ba 79 a0 be 05 52 a0 3e 8e 8f 85 3e
       0.0981009 -0.3134287 0.31312576 0.26086086

fc3.weight f4 [10, 20]
000000 89 26 04 3e fb 4a 7d bd 71 79 15 3f f2 cb ca 3e
       0.12905325 -0.061839085 0.5838843 0.39608723
000010 da 0d 80 bd e2 0c 47 bd c3 e6 81 be 58 65 09 3f
       -0.06252642 -0.04859627 -0.2537137 0.53670263
000020 ce b6 0b bf f1 39 4e be 9f 8d 71 be e8 57 cc be
       -0.5457581 -0.2013929 -0.2358918 -0.39910817
000030 86 9a 18 3e 2a 22 28 3f d6 93 ca be 65 a6 62 be
       0.14902696 0.6567713 -0.39565915 -0.22133787
000040 1b e3 b5 be 9f 5f 6d be 76 dc 87 bd 62 14 70 bd
       -0.3552483 -0.23181008 -0.066338465 -0.05861319
000050 93 f3 a6 bd e8 03 4c bd d3 d4 ab be 67 ca 06 bf
       -0.08151927 -0.049808413 -0.3356081 -0.5265259
000060 97 48 c9 bd ee 35 fe 3e 0f bc ee 3e 9e ea 94 be
       -0.098282985 0.4965052 0.46627852 -0.2908525
000070 77 48 b1 3d df 14 08 be 49 50 84 3e d0 6e d5 3e
       0.086564 -0.13289212 0.25842503 0.41686106
000080 74 a3 03 be 0d 8d 9c be 43 bf d1 bd 88 90 08 bd
       -0.12855321 -0.30576363 -0.102415584 -0.03334096
000090 7f 22 c9 3d 81 c2 64 bf 87 2d a9 3e 1c 56 17 bf
       0.09821033 -0.8935929 0.33042547 -0.5911577
0000a0 ce f4 f3 3d 26 26 ef bd 40 eb 2f bf 68 43 f8 3e
       0.11911927 -0.11677198 -0.6871834 0.48488927
0000b0 40 f4 c5 3e 4d 5e 61 3e 41 c0 77 3c 60 ce 33 be
       0.3866291 0.22008629 0.0151215205 -0.17559195
0000c0 85 74 4f bf ee c2 7d bc b5 1e eb 3e 0f 10 19 bf
       -0.8103717 -0.015488369 0.45921865 -0.5979013
0000d0 23 15 ad 3e 94 3a 01 3e 1c 18 26 3f 0a fd 9a 3c
       0.3380519 0.12620002 0.6488054 0.018919487
0000e0 c2 f8 12 3f be 17 03 3d b0 61 4b be 6e 78 fb 3e
       0.57410824 0.032005064 -0.19861484 0.49115318
0000f0 f0 61 9f 3d 4c 2d cb 3b dd 99 cb be fa 9b 18 3f
       0.07782352 0.006200468 -0.39765826 0.59613
000100 89 4b 9f be 16 24 ba 3e 29 95 99 3e 10 a3 83 be
       -0.31112316 0.36355656 0.29996613 -0.25710344
000110 2b 63 dd 3e bd 13 34 3e a8 9b 34 bf 13 62 f4 3e
       0.43239722 0.17585655 -0.7055001 0.47731075
000120 d6 ce 27 3e 97 8d 17 bf 36 78 84 3e c4 6a 08 3e
       0.16387495 -0.59200424 0.25872964 0.13321978
000130 54 ef 1f bb 8f 06 c5 bc ed 81 34 bc 8c 37 03 be
       -0.0024404125 -0.024050979 -0.011017305 -0.12814158
000140 06 4d 96 3d bd 6a ad bd d7 ac 2f 3e 78 10 8a be
       0.0733891 -0.08467624 0.17155777 -0.2696569
000150 e9 c0 cf 3e 88 20 dd 3d 7f 58 7b bf d1 0f 18 bf
       0.40576866 0.107972205 -0.9818191 -0.59399134
000160 06 e0 3a 3f 58 76 21 bd cf 2c b4 3e 1d ca 82 be
       0.7299808 -0.039419502 0.35190436 -0.25544825
000170 a0 8c 52 bd 7b 41 96 bd 3a 18 08 bf 91 39 35 be
       -0.05140364 -0.07336708 -0.53161967 -0.17697741
000180 e5 7f 1a 3e e3 0c 97 3d 00 27 28 3e 64 36 05 3f
       0.1508785 0.07375505 0.16421127 0.5203612
000190 0a 18 70 bd b3 25 3a 3c ec 99 de 3e 15 93 7c be
       -0.058616675 0.011361527 0.43476808 -0.24665482
0001a0 43 f8 52 be 3d fa 20 bf 08 e5 fb 3e 08 94 d6 3e
       -0.20602517 -0.62881833 0.49198174 0.41909814
0001b0 85 d5 34 3e 17 cd 0c be 6d 1b 85 3d f9 57 57 3f
       0.17659576 -0.1375011 0.06499372 0.8411861
0001c0 f9 d5 0e be 0d 1b 6f be 29 5f 69 bd 2e 50 26 be
       -0.13948812 -0.23350163 -0.056975517 -0.16241524
0001d0 11 31 1c 3e c5 0a d6 3e 63 4f 9e bf 73 3b 13 be
       0.15253092 0.41805092 -1.2367977 -0.14378147
0001e0 3d 99 ca 3d df 60 57 bc f8 2a 3c 3f 16 a0 3f bf
       0.09892509 -0.013145654 0.73503065 -0.74853647
0001f0 8e d9 ee 3d d8 8b 90 be a3 e7 5b 3e 92 a9 0d bf
       0.11662589 -0.28231692 0.21475081 -0.5533687
000200 d9 3b dc be 70 8b 33 be 86 9f 0c bf c3 94 1c be
       -0.4301441 -0.1753366 -0.54930913 -0.15291123
000210 f0 b3 48 3e 11 79 31 3f a5 39 46 bd 4e e2 2a be
       0.1959989 0.6932536 -0.048394818 -0.16687891
000220 ae 65 1b 3e 32 81 e5 3d aa 21 41 bd 2e 83 15 be
       0.15175506 0.11206283 -0.047151245 -0.14600822
000230 49 f5 fb bd 30 a9 a7 bd 6d 36 2f 3e a7 99 bd be
       -0.12302644 -0.08186567 0.17110606 -0.3703129
000240 50 65 68 3e 9d 3d 34 3e bd ae f6 be d2 39 17 3f
       0.22694898 0.17601629 -0.4818019 0.590726
000250 97 f1 f5 3e 9b 0f 20 3e 0f 4b 21 be 38 ae 9f be
       0.4803588 0.15630953 -0.15751289 -0.31187606
000260 6a 7d 12 3f bb 12 d4 be ca 53 17 3f e3 9f 4b 3d
       0.57222617 -0.4142054 0.59112227 0.049713027
000270 66 96 bc be ac b7 2d bf ce 19 b1 3e 10 43 90 3e
       -0.36833495 -0.67858386 0.3459 0.28176165
000280 f8 39 a3 bd 39 4d b4 3d 78 d7 77 3e 9d be bb 3e
       -0.07970041 0.088037916 0.24203289 0.36668864
000290 ab e0 6f 3e 07 96 75 be 9b 71 48 be 3f 22 15 be
       0.23425548 -0.23983012 -0.19574587 -0.14563845
0002a0 2d c0 78 3c ce 2f 83 bd 9a b6 26 3f da 9b 9b 3c
       0.015182537 -0.064056024 0.6512238 0.018995214
0002b0 63 17 51 bf 76 a5 06 3e ce fa 8a 3e f7 b3 13 3e
       -0.8167631 0.13149056 0.27144474 0.1442412
0002c0 85 75 fc be ef f2 c4 3e 82 31 1f 3e a1 ca 31 bf
       -0.4930841 0.38466594 0.1554623 -0.6944981
0002d0 10 6c 60 be 45 5d 9c 3c e6 04 e1 be 83 93 de 3d
       -0.21916223 0.019087443 -0.4394905 0.108679794
0002e0 b0 9d b5 be f3 0d 18 bf bc 92 9a bb 02 24 a8 3e
       -0.3547187 -0.59396285 -0.004717199 0.32839972
0002f0 aa f3 04 3d 62 70 0b be 04 31 3b be cc 29 0a be
       0.03245894 -0.1361709 -0.18280417 -0.13492507
000300 44 f1 be be f8 15 27 be 4a 1f 54 bf b9 c6 48 3b
       -0.37293446 -0.16316974 -0.82860243 0.0030636026
000310 3f da 25 bf 55 47 13 3f 3f 02 2b 3f 5e 49 95 3e
       -0.6478614 0.5753072 0.668003 0.29157537
