MNIST/nets/MNIST_MLP(20, 20, 10).pt (torch_old, 66364 bytes, 6 tensors)

fc1.weight f4 [20, 784]
0	0xbc2ca825	-0.010538136
1	0xbd802bdb	-0.06258365
2	0xbd6474df	-0.05577552
3	0xbd660cd3	-0.056164574
4	0xbc130cda	-0.008975232
5	0xbd5b146d	-0.053486276
6	0xbd56812d	-0.052369285
7	0xbd5c48e0	-0.053780437
8	0xbc5b9493	-0.013402122
9	0xbd602f87	-0.054732826
10	0xbd61a234	-0.05508633
11	0xbd260ba3	-0.04053844
12	0xbd2c5e61	-0.042082194
13	0xbd7c06ca	-0.061529912
14	0xbd86e34c	-0.06586322
15	0xbc288183	-0.010284784
16	0xbd45eccd	-0.048321534
17	0xbc8ad169	-0.016945558
18	0xbc37d92b	-0.0112212105
19	0xbcb7292b	-0.022358498
20	0xbd558029	-0.052124176
21	0xbc5e64b3	-0.013573813
22	0xbd757692	-0.05992753
23	0xbd31141a	-0.04323206
24	0xbca6ee0b	-0.02037718
25	0xbb7560d0	-0.0037441738
26	0xbcbade3a	-0.022811044
27	0xbd7bc7de	-0.061469905
28	0xbd1081a5	-0.03527989
29	0xbc36838c	-0.011139762
30	0xbd5ed080	-0.05439806
31	0xbca3d74e	-0.020000126
32	0xbbf80f27	-0.0075701657
33	0xbd6e9105	-0.05824377
34	0xbd0b6952	-0.03403599
35	0xbd1bb668	-0.038015753
36	0xbcc81796	-0.02442531
37	0xbcc25c6b	-0.023725709
38	0xbba77f00	-0.005111575
39	0xbc91bd6e	-0.017790522
40	0xbd93f2fd	-0.07224081
41	0xbc9359ea	-0.01798721
42	0xbd32e7a4	-0.04367794
43	0xbced4349	-0.028962748
44	0xbccee5ea	-0.025256116
45	0xbc46f694	-0.01214375
46	0xbce91e82	-0.02845693
47	0xbd3255ff	-0.043539044
48	0xbd720dc1	-0.059095148
49	0xbbd93f71	-0.0066298773
50	0xbbcf7f11	-0.006332286
51	0xbc0c8624	-0.0085769035
52	0xbc8715e3	-0.016489929
53	0xbcac7b2d	-0.021054829
54	0xbd508fb2	-0.05091829
55	0xbd136cf6	-0.035992585
56	0xbcdc7a78	-0.026913866
57	0xbcaa0ee8	-0.020759061
58	0xbd7a943a	-0.061176516
59	0xbd1a42cd	-0.037661362
60	0xbd08051f	-0.03320801
61	0xbd2a12c3	-0.0415218
62	0xbd404942	-0.046944864
63	0xbd98390a	-0.07432754
64	0xbd61bdf0	-0.05511278
65	0xbce04110	-0.027374774
66	0xbd87081a	-0.06593342
67	0xbd9f5025	-0.07778958
68	0xbdd6f2d0	-0.104955316
69	0xbde0b9e2	-0.10972954
70	0xbd8f2a14	-0.06990448
71	0xbdd8fdb5	-0.10595266
72	0xbd5bd0e4	-0.05366601
73	0xbccb99dc	-0.02485364
74	0xbd9e4d0b	-0.077295385
75	0xbd9f13b2	-0.077674285
76	0xbd147e9e	-0.036253564
77	0xbd93b99f	-0.07213139
78	0xbccbaa7d	-0.024861569
79	0xbd0d8527	-0.034550812
80	0xbc147373	-0.009060728
81	0xbd80ef4e	-0.06295644
82	0xbc0ee910	-0.008722559
83	0xbd461c58	-0.048366874
84	0xbccd928a	-0.02509429
85	0xbd207c01	-0.03918076
86	0xbaf47a4c	-0.001865217
87	0xbd356b9f	-0.04429209
88	0xbb840449	-0.004028831
89	0x3bb48e3b	0.0055101193
90	0xbd3c35d2	-0.045949765
91	0xbc259d1c	-0.010108259
92	0xbd386921	-0.045022134
93	0xbdaaeb43	-0.08345654
94	0xbd771f13	-0.06033237
95	0xbdb9d433	-0.09073677
96	0xbd9e3e36	-0.077267095
97	0xbdf0f9e8	-0.11766416
98	0xbd87e9b1	-0.0663637
99	0xbd0f6532	-0.035008617
100	0xbd6c8174	-0.057740644
101	0xbd47d009	-0.048782382
102	0x3b494639	0.0030712022
103	0xbd25dd0a	-0.040494002
104	0x3c7864e3	0.015160772
105	0xbd2c1e8f	-0.04202133
106	0x3bbcafe4	0.0057582725
107	0xbcef9c4e	-0.029249337
108	0xbca9839d	-0.02069264
109	0xbd002683	-0.031286728
110	0x3ad1b90c	0.0016000583
111	0xbd175d89	-0.036954436
112	0xbc37d623	-0.011220488
113	0xbd1de757	-0.0385507
114	0xbc3fa555	-0.011697133
115	0xbd1948b8	-0.037422866
116	0xbd075296	-0.033037744
117	0xbc31f227	-0.010860956
118	0xbd094690	-0.03351456
119	0xbb55efd6	-0.0032644174
120	0xbb138695	-0.0022510637
121	0xbcd0c501	-0.025484564
122	0xbc2a3cdf	-0.010390489
123	0x3bd9f0ec	0.0066510346
124	0x3c5bf748	0.013425656
125	0xbcd71e67	-0.026259614
126	0x3c832d8f	0.016012935
127	0x3d23a711	0.03995425
128	0x3d8750b4	0.0660719
129	0x3caf1314	0.021371402
130	0x3d9c6df9	0.07638163
131	0x3d0b0484	0.033939853
132	0x3cf13658	0.029444858
133	0xbcae79c5	-0.021298299
134	0xbca17578	-0.019709334
135	0x3bf77092	0.007551261
136	0x3ca2b56e	0.019861903
137	0x3c724f90	0.014789477
138	0xbccc492f	-0.02493724
139	0xbbb27575	-0.005446131
140	0xbd0a36dd	-0.033743728
141	0xbcb56dd1	-0.022147091
142	0xbc58fc24	-0.013243709
143	0xbd130183	-0.035890114
144	0xbd6878a5	-0.05675568
145	0xbab0f327	-0.00135002
146	0xb9cd0cd6	-0.0003911021
147	0x3c3815df	0.011235683
148	0xbcfbee19	-0.030753182
149	0x3d0efd7c	0.03490971
150	0x3ce5c5fe	0.028048512
151	0x3dcc5cb8	0.09978622
152	0x3cd5934e	0.026071217
153	0xbb5bc40d	-0.0033533603
154	0xbc01e152	-0.007927256
155	0xbc715ca4	-0.01473156
156	0xbc5a7608	-0.013333805
157	0x3bc3dcfe	0.005977272
158	0xbcba177c	-0.022716276
159	0xbcbc296d	-0.022968972
160	0x3c90bffc	0.01766967
161	0xbb31f1f3	-0.002715227
162	0xbb2c0f90	-0.0026254393
163	0xbc96f1c9	-0.018425839
164	0x3c9cbf51	0.019134196
165	0x3c465162	0.012104364
166	0xbc845495	-0.016153613
167	0xbc99bcec	-0.018766843
168	0xbd2b84f9	-0.04187486
169	0x3b55f21d	0.0032645531
170	0xbd78d8bd	-0.060753573
171	0xbd793168	-0.060838133
172	0xbd13a473	-0.036045503
173	0x39820d91	0.0002480564
174	0xbd086304	-0.033297554
175	0x3cf78a95	0.030217448
176	0x3d9f3c59	0.07775182
177	0x3d6331ef	0.055467542
178	0x3d8ccb75	0.06874744
179	0x3d92550e	0.07145129
180	0x3d62eafb	0.055399876
181	0x3d3e6a6c	0.04648821
182	0x3c9a5ac9	0.018842118
183	0x3c512ed0	0.012767509
184	0x3ba67443	0.0050797774
185	0xbc26f8f0	-0.010191187
186	0x3c52360a	0.012830267
187	0x3d6d8fb2	0.057998367
188	0x3ce7f79d	0.028316313
189	0x3d22eb97	0.039775457
190	0x3c5aa706	0.013345486
191	0x3cfc6b14	0.030812778
192	0x3d04158e	0.03224712
193	0x3b94af50	0.0045375004
194	0xbbcd8ea4	-0.0062731076
195	0xbd2b28c9	-0.041786943
196	0xbd62f652	-0.05541069
197	0xbd0df5d5	-0.03465827
198	0xbd853bfd	-0.065055825
199	0xbc960a84	-0.018315561
200	0xbcf0224b	-0.029313227
201	0x3c0e3208	0.008678921
202	0xbc1677ab	-0.0091838045
203	0x3d18ac06	0.03727343
204	0x3df65d1b	0.12029477
205	0x3ddd9ed6	0.10821311
206	0x3dccd0ec	0.10000786
207	0x3d628fac	0.055312797
208	0x3dee07b2	0.116225615
209	0x3d9caccb	0.07650145
210	0xbced7e63	-0.02899093
211	0x3c41d06d	0.011829478
212	0xbcd335a9	-0.025782423
213	0x3c1056b5	0.008809735
214	0x3d138e41	0.036024336
215	0x3d181985	0.037133712
216	0x3d85ea65	0.06538848
217	0x3d2e06e6	0.042487048
218	0x3da2dc1c	0.07952139
219	0x3dacac40	0.084312916
220	0x3d18a4c0	0.037266493
221	0x3d12526a	0.035723127
222	0xbcbf4d4f	-0.023352293
223	0xbc7051ca	-0.0146679375
224	0xbd30c1b8	-0.043153495
225	0xbd70cfd0	-0.058791935
226	0xbd65484f	-0.055977162
227	0xbd83d7f9	-0.06437678
228	0xbd66bfec	-0.056335375
229	0x3d0e0015	0.034668047
230	0x3d435bcd	0.04769497
231	0x3d15c6aa	0.036566414
232	0x3d85ecc7	0.06539302
233	0x3d94c527	0.07264166
234	0x3d258eaa	0.04041926
235	0x3dcdf97f	0.10057353
236	0x3db8e6c6	0.090283915
237	0x3db32596	0.08747403
238	0x3d10304e	0.035202317
239	0xbd6e67bb	-0.058204394
240	0x3d3c6d74	0.04600282
241	0xbc9fb17f	-0.019493816
242	0x3dc81503	0.09769633
243	0x3df5ff3b	0.12011572
244	0x3df572e7	0.119848065
245	0x3daf5670	0.085614085
246	0x3d67e6f9	0.056616757
247	0x3dee1b47	0.116262965
248	0x3e0049a2	0.12528089
249	0x3dd45c8a	0.10369213
250	0xbc463836	-0.012098363
251	0x3b680fb1	0.0035409743
252	0xbd004ec4	-0.031325117
253	0xbd826ca7	-0.0636838
254	0xbd37c506	-0.04486563
255	0xbcbf81bc	-0.023377292

fc1.bias f4 [20]
0	0x3d868634	0.06568566
1	0x3d260631	0.04053325
2	0xbb944ac6	-0.0045255153
3	0xbc41d6a1	-0.011830957
4	0xbcd3d895	-0.02586011
5	0xbcd768ae	-0.026295032
6	0x3d32544d	0.043537427
7	0x3c2d3a5a	0.010572994
8	0xbc5c6789	-0.013452419
9	0xbc8869a0	-0.016651928
10	0xbb2f6087	-0.0026760416
11	0xbc320abc	-0.010866817
12	0xbd1b00fe	-0.037842743
13	0x3c4a45dd	0.012345758
14	0xbce1ed38	-0.027578935
15	0x3c86126f	0.016366212
16	0x3d17d7de	0.0370711
17	0x3cf62495	0.03004674
18	0x3b470fd1	0.0030374418
19	0x3cb46aaf	0.022023527

fc2.weight f4 [20, 20]
0	0xbe3cb989	-0.18430151
1	0xbdc86e40	-0.097866535
2	0x3e8a8cff	0.27060696
3	0x3e57eb68	0.21085894
4	0xbe3a4faa	-0.18194452
5	0x3e765c5e	0.24058673
6	0xbe0f02ba	-0.13965884
7	0xbe30b8f4	-0.17258054
8	0x3ca26f4d	0.019828463
9	0xbd299362	-0.04140032
10	0x3d0f973a	0.03505633
11	0x3d9f4772	0.07777299
12	0xbebc592e	-0.3678679
13	0xbe4cb012	-0.1998904
14	0x3e67f628	0.22652495
15	0x3df124b6	0.1177458
16	0x3c05fa51	0.008177356
17	0x3e5bdbfd	0.21470638
18	0x3e45621e	0.1927571
19	0xbd847ebf	-0.064694874
20	0x3f5966f3	0.84922713
21	0xbe6a9f78	-0.22912395
22	0x3e40b481	0.18818857
23	0xbeb605e3	-0.35551366
24	0x3ec919d1	0.3927751
25	0xbf31a46a	-0.693915
26	0x3e414ef4	0.18877774
27	0x3e64754b	0.22310369
28	0x3ed8e6a5	0.42363468
29	0x3ea0d110	0.31409502
30	0xbe34ad78	-0.17644298
31	0x3e6f36cf	0.23360752
32	0x3e8c5187	0.2740595
33	0x3cdff4e5	0.027338454
34	0xbed319b7	-0.41230556
35	0xbdec8a81	-0.11549855
36	0x3e170de6	0.14751396
37	0xbe428b0d	-0.18998356
38	0xbf12c9e7	-0.5733933
39	0x3eec7fcf	0.4619126
40	0xbe9c4f04	-0.30529034
41	0x3db43954	0.08799997
42	0x3ee2597b	0.44208893
43	0x3e0ec42a	0.13942018
44	0xbe38834f	-0.1801884
45	0xbdd77d5e	-0.10521959
46	0x3e5c22ca	0.21497646
47	0xbe08b055	-0.13348515
48	0x3d3d0ae3	0.04615296
49	0x3e4b1dd9	0.19835605
50	0xbe425017	-0.18975864
51	0xbe998c11	-0.29989675
52	0x3f05c50c	0.52253795
53	0x3ef68670	0.48149443
54	0xbdf2e7bc	-0.11860606
55	0xbf3ac31b	-0.7295396
56	0xbe50a4d0	-0.20375371
57	0x3da27bf1	0.07933796
58	0x3e5e1221	0.21686603
59	0xbdb0869f	-0.08619427
60	0xbe4253c2	-0.18977264
61	0x3e8727cb	0.26397547
62	0x3eddc554	0.43314612
63	0xbe3526b1	-0.17690541
64	0x3e7d35a6	0.24727497
65	0xbe03d20a	-0.12873092
66	0x3f194cb4	0.59882665
67	0x3dc48091	0.095948346
68	0xbf395e91	-0.7240992
69	0x3ebe8e66	0.37218016
70	0x3ef3177d	0.47478858
71	0x3ec968ce	0.39337772
72	0xbe46da6d	-0.1941926
73	0xbf09a1c8	-0.53762484
74	0x3c07154b	0.008244823
75	0xbe80ca64	-0.25154412
76	0xbdc1d841	-0.09465075
77	0xbdc9cd0b	-0.09853562
78	0xbf03443d	-0.51276
79	0xbec03639	-0.3754137
80	0x3bdc5351	0.0067237993
81	0x3e59d782	0.21273616
82	0xbf170245	-0.5898784
83	0xbe8eab2c	-0.2786497
84	0x3deca8dc	0.11555645
85	0x3ec1f849	0.3788474
86	0xbde03d91	-0.10949243
87	0x3e2189cd	0.15775223
88	0xbe59f4c1	-0.21284772
89	0xbeec9189	-0.46204785
90	0x3ee6d296	0.4508254
91	0x3e6e4589	0.23268713
92	0x3c9462d7	0.018113537
93	0xbe8b1ad8	-0.27168918
94	0x3e332bda	0.17497197
95	0x3f2763ec	0.65386844
96	0x3dd08eaf	0.10183465
97	0x3ea0e6ce	0.3142609
98	0x3c5b50e0	0.013385981
99	0xbdcf47ca	-0.101211146
100	0x3d703cfe	0.058651917
101	0x3eb2d600	0.34928894
102	0xbe537355	-0.20649464
103	0xbe25639b	-0.16151278
104	0xbe46be81	-0.19408609
105	0x3eee9280	0.46596146
106	0x3e28309b	0.16424792
107	0xbe137a6f	-0.14402173
108	0x3f30b049	0.6901899
109	0xbf0112a8	-0.5041909
110	0xbeb4a70d	-0.352837
111	0xbef445e6	-0.47709578
112	0x3dc6d107	0.097078376
113	0x3ecf51a6	0.4049198
114	0x3e101922	0.14072087
115	0x3e718a6f	0.23587964
116	0x3f098b23	0.5372793
117	0xbe1a99ff	-0.15097807
118	0xbebbac8c	-0.3665508
119	0x3f414d91	0.7550898
120	0x3dc7419b	0.0972931
121	0xbe3bceff	-0.18340681
122	0xbe5da236	-0.2164391
123	0x3dbb32ee	0.091405734
124	0xbddfd0d9	-0.109285064
125	0x3d35ee84	0.04441692
126	0x3d847fe5	0.064697064
127	0xbaecdfeb	-0.0018072104
128	0x3e0b9891	0.13632418
129	0xbd1feb33	-0.039042663
130	0x3df0e420	0.117622614
131	0x3e5bf301	0.21479417
132	0xbdf9b495	-0.121926464
133	0x3da6ae0a	0.08138664
134	0xbe320129	-0.17383255
135	0xbe1bc3f5	-0.1521147
136	0x3def8caa	0.116967514
137	0xbddfddad	-0.10930953
138	0xbe1ccb15	-0.15311845
139	0x3df8621b	0.12128087
140	0x3e8f4b09	0.27986935
141	0xbf0e2f7f	-0.55541223
142	0xbf009131	-0.50221545
143	0x3ca12229	0.01966961
144	0xbe135bd7	-0.14390503
145	0x3ea561b5	0.32301107
146	0x3f0c537f	0.54814905
147	0x3db17cc5	0.08666376
148	0xbe69dd51	-0.22838332
149	0x3d0d7976	0.034539662
150	0x3e071b82	0.13194087
151	0xbe6d4c17	-0.23173557
152	0xbe93a29b	-0.28834996
153	0x3ebd0964	0.36921227
154	0x3e30b3f9	0.17256154
155	0xbe8b27ee	-0.271789
156	0xbdd861fd	-0.10565565
157	0xbe7c36c3	-0.24630265
158	0xbe035ccc	-0.12828368
159	0x3ee2625d	0.4421567
160	0xbd973a07	-0.07384115
161	0xbcf09ce8	-0.029371694
162	0xbe38eb6a	-0.18058553
163	0x3e54b076	0.2077044
164	0xbe180b14	-0.14847976
165	0x3de783b8	0.1130442
166	0xbd8400e1	-0.0644548
167	0xbc606fd0	-0.013698533
168	0xbe4297df	-0.19003247
169	0xbe40deab	-0.18834941
170	0x3cca035f	0.02465981
171	0xbdd190d3	-0.10232701
172	0xbe0b1b34	-0.13584596
173	0xbe3e9a8b	-0.18613641
174	0xbe373c90	-0.17894197
175	0xbe241673	-0.16024189
176	0xbe16555a	-0.14680997
177	0x3d69e071	0.05709881
178	0x3dd627f5	0.1045684
179	0xbd6fab78	-0.058513135
180	0x3ebbe482	0.36697775
181	0x3def19f7	0.11674874
182	0x3ed9d3dc	0.42544448
183	0x3f0fbe9c	0.5615022
184	0x3ed1e61b	0.4099587
185	0xbe341d11	-0.17589213
186	0xbdca2e2f	-0.0987209
187	0xbd2c5e6b	-0.04208223
188	0xbeae3812	-0.34027153
189	0x3eb022ec	0.34401643
190	0x3d23572a	0.039878048
191	0x3edd2ec0	0.4319973
192	0x3dae334a	0.08505876
193	0xbe6340bc	-0.22192663
194	0xbd733588	-0.059377223
195	0xbcd0f6af	-0.025508253
196	0xbd91126e	-0.07083593
197	0x3e16f397	0.1474136
198	0xbeb5781a	-0.35443193
199	0xbf0e0202	-0.55471814
200	0xbe302288	-0.17200673
201	0x3d9cda6a	0.07658847
202	0xbe406a02	-0.18790439
203	0x3e1d74c4	0.15376574
204	0xbdf0d200	-0.11758804
205	0x3e46208c	0.19348353
206	0xbe7fd285	-0.2498265
207	0xbe39e9a9	-0.1815554
208	0x3dfbc915	0.12294213
209	0x3e5ab948	0.21359742
210	0x3e25a9f9	0.1617812
211	0xbc1f5e7a	-0.009727115
212	0xbe0c202e	-0.1368415
213	0xbd83dddd	-0.064388014
214	0x3d4bb27e	0.04973077
215	0xbdae2908	-0.0850392
216	0x3e04598f	0.12924789
217	0x3e5653b7	0.20930372
218	0xbe4bde43	-0.19909005
219	0x3e381be7	0.17979394
220	0x3f24a5bb	0.64315385
221	0xbeb25fa9	-0.34838608
222	0xbe526524	-0.20546395
223	0xbe252ae6	-0.16129646
224	0x3d3a68fe	0.045510285
225	0x3e1873f0	0.14887977
226	0x3e4982c7	0.19678794
227	0x3e0b7232	0.13617781
228	0xbea71f70	-0.32641172
229	0x3ebfd6a6	0.3746845
230	0xbd8855a0	-0.06656957
231	0xbe1c9a97	-0.15293346
232	0x3ed53ed9	0.4164951
233	0xbf0164d9	-0.50544506
234	0x3e268219	0.16260566
235	0xbea62e04	-0.32456982
236	0xbeae0c1e	-0.3399362
237	0x3da8b075	0.082367815
238	0x3f0e2f43	0.55540866
239	0xbdd79497	-0.10526388
240	0x3e7ec12e	0.2487838
241	0x3f20761c	0.6268022
242	0x3dd913a5	0.1059945
243	0x3f1ba9c7	0.60805935
244	0xbecaa0b8	-0.39575744
245	0x3e054bb6	0.13017163
246	0x3e79bd99	0.24388732
247	0xbbea5025	-0.0071506673
248	0x3e1759ba	0.14780322
249	0xbf005549	-0.50130135
250	0xbdad638d	-0.084662534
251	0x3de4d6d1	0.111737855
252	0xbefb797f	-0.49116132
253	0xbc842d2d	-0.016134823
254	0xbd910872	-0.07081689
255	0x3ce161c3	0.027512437

fc2.bias f4 [20]
0	0x3dcf90be	0.10135029
1	0xbde958ee	-0.11393915
2	0xbbe6af17	-0.0070399153
3	0x3e32b87f	0.17453192
4	0x3e331e00	0.17491913
5	0xbca764f7	-0.020433886
6	0xbca4d6cd	-0.020121956
7	0x3e54d37d	0.20783801
8	0x3d81e48d	0.06342421
9	0x3d821799	0.06352157
10	0x3e00ea15	0.12589295
11	0xbddda3fb	-0.108222924
12	0x3d12d62e	0.03584879
13	0x3c6b8d44	0.014376942
14	0xbbdcf931	-0.006743573
15	0x3ccf9528	0.025339678
16	0xbaa44e3d	-0.0012535524
17	0x3de7367a	0.112896875
18	0xbe2b2eb3	-0.16717033
19	0x3e189683	0.14901166

fc3.weight f4 [10, 20]
0	0x3e9c785b	0.30560574
1	0xbf2852f0	-0.6575155
2	0xbe047009	-0.12933363
3	0xbea531da	-0.32264596
4	0x3cbef42d	0.023309791
5	0x3d3c02a2	0.04590095
6	0xbd2c13bd	-0.04201101
7	0x3e170cae	0.1475093
8	0xbe464ef0	-0.1936605
9	0x3ee255b2	0.44206005
10	0x3e53bc4b	0.20677297
11	0xbe26c6a9	-0.1628672
12	0x3ee37c32	0.4443069
13	0xbdce0c8f	-0.10060989
14	0x3d9fb5cb	0.07798346
15	0xbcc0490f	-0.023472337
16	0xbdcd014f	-0.10010015
17	0x3eba8299	0.36427763
18	0xbe5cd154	-0.21564227
19	0xbef21dd0	-0.4728837
20	0x3e5149a6	0.20438251
21	0x3ca49ab0	0.020093292
22	0xbf3638cf	-0.71180433
23	0x3ed0d498	0.40787196
24	0x3f2b4ef2	0.66917336
25	0x3f01a529	0.5064264
26	0xbd2b38cd	-0.041802216
27	0x3e959b75	0.29220167
28	0xbc2ebf33	-0.010665703
29	0xbe70b169	-0.23505177
30	0x3dd33162	0.103121534
31	0x3e5225b2	0.20522192
32	0xbf328017	-0.697267
33	0x3e00f6dc	0.1259417
34	0x3e5e5d94	0.21715385
35	0x3df86f21	0.12130571
36	0x3e54a782	0.20767024
37	0xbf0563f9	-0.5210567
38	0xbe0ec6cb	-0.13943021
39	0xbe5c8949	-0.21536745
40	0xbe001d55	-0.1251119
41	0xbea3481f	-0.31890962
42	0x3e915e07	0.2839205
43	0xbe4f57f8	-0.20248401
44	0x3eb67771	0.35638002
45	0x3f39ed16	0.7262739
46	0xbe265fcb	-0.1624748
47	0xbea862af	-0.3288779
48	0x3dc06dcb	0.09395941
49	0xbef65ee5	-0.48119274
50	0x3e5e895b	0.21732084
51	0xbea8f411	-0.32998708
52	0x3f2d5920	0.6771412
53	0x3e9064af	0.28201815
54	0x3cd8acd6	0.026449602
55	0x3f2f16c3	0.68394107
56	0x3e2c7b38	0.16843879
57	0x3e0ae0a4	0.13562256
58	0x3d0be884	0.03415729
59	0xbe9d817f	-0.3076286
60	0x3e2b02dc	0.1670031
61	0x3f37abd0	0.7174654
62	0x3d049436	0.032367907
63	0xbeb0a12a	-0.34497958
64	0xbec4186d	-0.38299885
65	0x3f6add56	0.9174398
66	0x3d275168	0.04084912
67	0x3dc540a3	0.09631469
68	0x3c8f904c	0.01752486
69	0xbeaedc9a	-0.3415268
70	0xbde92a65	-0.11385039
71	0xbf299f0f	-0.6625833
72	0xbd0fc214	-0.035097197
73	0xbe9868b8	-0.29767394
74	0x3c9b5034	0.018959142
75	0xbe55cd44	-0.20879084
76	0x3e2b74c7	0.16743766
77	0x3e8ad3a1	0.27114585
78	0xbdeb68ad	-0.11494575
79	0xbd9a52b3	-0.07535305
80	0x3d43fee0	0.04785049
81	0xbec358ad	-0.38153592
82	0x3db7f6e2	0.08982636
83	0x3ea1852f	0.31546924
84	0xbefd9525	-0.4952785
85	0xbf0aa961	-0.541647
86	0x3dea3023	0.114349626
87	0x3ec480b4	0.38379443
88	0xbe322993	-0.17398672
89	0x3ea82e43	0.32847795
90	0xbe569047	-0.20953475
91	0x3c9eb0d9	0.019371437
92	0x3de0459e	0.109507784
93	0x3f13392d	0.5750912
94	0x3e2cc231	0.16870953
95	0xbee7df61	-0.45287612
96	0x3e32d013	0.17462187
97	0xbf306d0f	-0.6891641
98	0x3e5efc9d	0.21776052
99	0x3f396533	0.7242004
100	0xbeea97b5	-0.45818868
101	0x3f630b36	0.8868898
102	0xbd4e0ead	-0.050306965
103	0x3ed1e2d2	0.40993363
104	0x3e3fb409	0.18721022
105	0xbf0aeba7	-0.54265827
106	0x3d779626	0.060445927
107	0xbf856c30	-1.0423641
108	0x3dfbe98f	0.12300407
109	0x3f561493	0.83625144
110	0xbdf01cfb	-0.117242776
111	0x3dffbaed	0.12486825
112	0xbf1357f6	-0.5755609
113	0x3cd47a74	0.025937296
114	0xbd007d3c	-0.031369433
115	0xbe13b6eb	-0.14425246
116	0x3e2b26e6	0.16714057
117	0x3ef60a60	0.4805479
118	0xbe943afa	-0.28951246
119	0xbed60977	-0.41804096
120	0x3e140665	0.14455564
121	0xbf03d8e0	-0.515028
122	0x3e0dfef8	0.13866794
123	0x3f987c71	1.1912977
124	0x3db57d9d	0.088618495
125	0xbf046ec3	-0.5173151
126	0x3e546906	0.20743188
127	0xbe37ed03	-0.17961507
128	0x3db6aad3	0.08919301
129	0xbd45e958	-0.048318237
130	0x3e3ac5c3	0.18239503
131	0xbe88ef14	-0.26744902
132	0x3e142b03	0.14469533
133	0xbe637655	-0.22213109
134	0x3e0b1cdc	0.13585228
135	0x3df3e8e5	0.119096555
136	0xbe54f9c3	-0.20798402
137	0xbe95f336	-0.29287118
138	0x3e2e5e09	0.17028059
139	0xbe768ac5	-0.24076374
140	0x3e6d5efa	0.23180762
141	0xbed6dba6	-0.41964453
142	0xbf1e4a89	-0.6183248
143	0xbee5425d	-0.44777194
144	0x3eb32e62	0.34996325
145	0x3e06bfe6	0.13159141
146	0x3e710db5	0.23540385
147	0xbd869422	-0.06571223
148	0x3cae4b8f	0.021276264
149	0xbeaf9e43	-0.34300432
150	0xbc5842cb	-0.013199518
151	0xbe4b4d7e	-0.1985378
152	0xbe96172a	-0.29314548
153	0x3eab86f7	0.33501408
154	0xbe0c48b0	-0.13699603
155	0x3f4b30ef	0.7937154
156	0x3d35a7ae	0.044349365
157	0x3f1ad0f7	0.60475105
158	0xbca1919c	-0.019722752
159	0x3f75841f	0.95904726
160	0xbde41775	-0.111372866
161	0x3eff5651	0.49870542
162	0xbef035f7	-0.46916172
163	0x3d4803ab	0.048831623
164	0xbebf2987	-0.3733637
165	0xbef5a265	-0.4797546
166	0xbe430fb0	-0.19048953
167	0x3eb62b86	0.3558008
168	0x3d945d17	0.07244318
169	0xbe0f2506	-0.13978967
170	0x3c534075	0.012893786
171	0x3f2b74b3	0.66974944
172	0x3f0c042b	0.5469386
173	0xbf101fa0	-0.56298256
174	0x3cc28d98	0.023749158
175	0xbe878f32	-0.26476437
176	0x3e177979	0.14792432
177	0xbc41117d	-0.011783955
178	0x3e9d84f3	0.30765495
179	0xbed9490e	-0.4243855
180	0x3e8dbc44	0.27682698
181	0x3dbff77f	0.09373378
182	0x3f041b5f	0.51604265
183	0xbedde5c0	-0.43339348
184	0xbf10203c	-0.56299186
185	0x3e1de31b	0.15418665
186	0xbd9e43d4	-0.07727781
187	0x3e9899f0	0.29804945
188	0xbb9aec95	-0.00472791
189	0xbeba8930	-0.3643279
190	0xbde43d57	-0.11144512
191	0x3f35fd5c	0.7108972
192	0xbe7650b8	-0.2405423
193	0xbe03057c	-0.12795061
194	0x3e271036	0.16314778
195	0xbf541afb	-0.8285367
196	0x3e33fcd4	0.17576915
197	0x3e496429	0.19667114
198	0xbe283d45	-0.16429622
199	0x3e98dc28	0.29855466

fc3.bias f4 [10]
0	0x3e1e296f	0.15445493
1	0xbd52f3c9	-0.051502023
2	0xbe903ca6	-0.2817127
3	0x3e3a0727	0.18166791
4	0xbe33c3e5	-0.17555197
5	0xbcff9e4c	-0.031203412
6	0x3d55bf43	0.052184355
7	0xbe33fe5e	-0.17577502
8	0xbb196ce7	-0.0023410858
9	0x3c849d8b	0.016188404
