MNIST/nets/MNIST_MLP(20, 10).pt (torch_old, 64095 bytes, 2 tensors)

fc1.weight f4 [20, 784]
0	0x3cb39ef2	0.021926377
1	0x3cfb3844	0.030666478
2	0x3d1e9875	0.038719613
3	0xbc34d6e9	-0.011037567
4	0xbc81ca88	-0.015843645
5	0xbccd9c87	-0.025099052
6	0xbc81744b	-0.015802523
7	0xbce24281	-0.027619602
8	0x3c91a51c	0.017778926
9	0x3d04b306	0.032397293
10	0x3c14019e	0.009033589
11	0xbbc0fce9	-0.0058895242
12	0x3cfe4d60	0.031042755
13	0xbc951381	-0.018197777
14	0x3b6f6c0e	0.0036532911
15	0x3d083e54	0.033262566
16	0xbbb9ba7e	-0.0056679836
17	0xbce4257a	-0.027849901
18	0x3ce925e8	0.028460458
19	0xbc42a42d	-0.011879963
20	0xbbcc2c72	-0.006230884
21	0x3bd4847a	0.006485519
22	0x3c1422be	0.009041486
23	0x3b9cda19	0.0047867415
24	0xbcb864ce	-0.022509005
25	0x3befe80a	0.0073213624
26	0xbcac45a2	-0.021029297
27	0x3d14048b	0.036137145
28	0x3c8c4154	0.017120995
29	0xbc491f84	-0.01227558
30	0x3b169d4b	0.0022981938
31	0xbcbe2740	-0.023212075
32	0x3c5940df	0.013260095
33	0xbcd48b95	-0.025945464
34	0x3b03be67	0.0020102502
35	0x3cb7cd44	0.022436745
36	0x3c887c27	0.016660763
37	0xbc53aa42	-0.012919011
38	0xbc55defb	-0.013053651
39	0xbc1ee21b	-0.009697462
40	0xbc5349cd	-0.012896013
41	0xbcbbf642	-0.022944573
42	0x3ce994e7	0.028513385
43	0x3b5673a2	0.003272273
44	0xbcbceb3c	-0.023061387
45	0xbb74a7b0	-0.0037331395
46	0xbc857c28	-0.016294554
47	0x3ce23948	0.027615204
48	0xbc9b8535	-0.018984416
49	0x3ccddef2	0.025130723
50	0x3d18e88c	0.03733115
51	0x3d14541d	0.03621303
52	0x3c8bcfd4	0.017066874
53	0xba961dfc	-0.0011453028
54	0xbc420c88	-0.011843808
55	0xba9bf42f	-0.0011898334
56	0x3d21dac5	0.039515276
57	0xbb87ef78	-0.00414842
58	0x3c2694e2	0.010167332
59	0xbccbcf10	-0.024879009
60	0x3cd283b7	0.025697572
61	0xbcb9655b	-0.022631338
62	0x3c003eb4	0.00782745
63	0xbcfdda62	-0.030987922
64	0x3bcb8c90	0.0062118247
65	0x3c52a9a8	0.012857832
66	0x3c1175a1	0.008878143
67	0xbd04164f	-0.032247838
68	0xbd203563	-0.039113414
69	0xbd178449	-0.03699139
70	0xbd31e5b4	-0.043431953
71	0xbce9b478	-0.028528437
72	0xbb040e75	-0.0020150219
73	0xbc8c403f	-0.017120479
74	0xbd2059a9	-0.039148007
75	0xbd0d89bf	-0.034555193
76	0x3ce150ec	0.027504407
77	0x3c928e46	0.017890107
78	0x3d048768	0.032355696
79	0xbcc0c02f	-0.02352914
80	0xbbb4f67e	-0.005522548
81	0x3d0870fc	0.033310875
82	0xbbd5158d	-0.006502813
83	0x3c0065be	0.007836757
84	0xbbefeb3c	-0.0073217433
85	0xbcfc0081	-0.030761959
86	0xbc863dac	-0.01638683
87	0xbc07a57d	-0.008279202
88	0xbca61a47	-0.020276202
89	0xbccd56e4	-0.025065847
90	0x3d0f0193	0.03491361
91	0xbcf3bae7	-0.029752208
92	0xbd22b83c	-0.03972648
93	0xbd43ec82	-0.047832973
94	0xbd1a6be9	-0.037700567
95	0xbd3834ce	-0.044972233
96	0xbdaf81fb	-0.08569714
97	0xbdb2d4fb	-0.08732029
98	0xbd8498fd	-0.06474493
99	0xbd7ff594	-0.06249006
100	0xbd2e413c	-0.04254268
101	0xbc75c79f	-0.015001207
102	0xbca495fd	-0.020091051
103	0xbcf5a850	-0.029987484
104	0xbcf5d451	-0.030008467
105	0x3cad0ab8	0.021123275
106	0xbc193f65	-0.009353493
107	0xbcc000cd	-0.023437882
108	0x3c78992a	0.015173236
109	0x3a54e000	0.0008120537
110	0xba2a873b	-0.0006505136
111	0x3b6d6a40	0.003622666
112	0x3cfeed58	0.031119034
113	0xbcd15649	-0.02555384
114	0x3c9cc0a1	0.019134821
115	0x3cb0edc2	0.021597747
116	0x3cbab695	0.02279214
117	0xbb5b6506	-0.0033476963
118	0xbaeb52b1	-0.0017953721
119	0xbcc29662	-0.023753349
120	0xbbad22df	-0.005283698
121	0xbc9a2632	-0.018817041
122	0xbd7fe2c6	-0.062472127
123	0xbde932ad	-0.11386619
124	0xbd740a01	-0.059579853
125	0xbda340d0	-0.079713464
126	0xbd5af253	-0.053453755
127	0xbdc80535	-0.09766618
128	0xbda417fd	-0.08012388
129	0xbcbe2b5f	-0.02321404
130	0xbc834ed1	-0.016028794
131	0x3c5382e3	0.012909624
132	0xbcad8f53	-0.021186506
133	0xbc450c14	-0.012026805
134	0x3c176324	0.009239946
135	0x3d42e37a	0.04758022
136	0x3cb579ba	0.02215277
137	0x3c4e44ca	0.012589643
138	0xbb937206	-0.0044996766
139	0x3ce6dada	0.028180528
140	0x3d12bc2e	0.035823993
141	0xbbe828e9	-0.007084955
142	0xbc2c8a07	-0.010530955
143	0x3d027470	0.031849325
144	0xbc52bf50	-0.012862995
145	0xbcee94d0	-0.029123694
146	0x3b46c13b	0.0030327577
147	0xbd3051c9	-0.043046746
148	0xbcc01548	-0.023447648
149	0xbd802ec6	-0.06258921
150	0xbddae561	-0.10688282
151	0xbd6ed52a	-0.058308758
152	0xbd381bcb	-0.04494838
153	0xbd5793d7	-0.052631225
154	0xbd5ede53	-0.054411244
155	0xbd8af892	-0.06785692
156	0xbda73081	-0.08163548
157	0xbdb1a31b	-0.08673688
158	0xbd8df778	-0.069319665
159	0xbd704578	-0.05866
160	0xbcc5eb34	-0.024160005
161	0xbcad1611	-0.021128686
162	0xbc894c48	-0.016760007
163	0x3cd474d8	0.025934622
164	0xbc94baf3	-0.01815555
165	0xb8867963	-6.412228e-05
166	0xbccd8eaa	-0.025092442
167	0x3c2d5c54	0.010581095
168	0x3cb41554	0.021982826
169	0xbcdc8485	-0.026918659
170	0x3c4f6902	0.012659313
171	0x39ff3c42	0.00048682286
172	0x3c954984	0.018223532
173	0xbac80099	-0.0015258967
174	0xbd306211	-0.043062273
175	0xbc62694c	-0.01381905
176	0xbd834af9	-0.06410784
177	0xbd094276	-0.033510648
178	0xbc98ee36	-0.018668275
179	0xbc2d21c2	-0.0105671305
180	0xbd8ea170	-0.069643855
181	0xbd2e777b	-0.042594414
182	0xbcd41939	-0.025890933
183	0xbda027f7	-0.07820123
184	0xbd41b67e	-0.04729318
185	0xbcf17601	-0.029475214
186	0xbce3ced2	-0.02780858
187	0xbc792bf4	-0.015208233
188	0x3c0425a2	0.008065613
189	0x3c2ad778	0.010427348
190	0xbd1c9d30	-0.038235843
191	0x3cea8d5f	0.028631864
192	0xbc0ce2f1	-0.008599029
193	0x3cd3587b	0.025799027
194	0x3cb98fde	0.022651609
195	0x3d17a322	0.03702081
196	0x3d0f501a	0.0349885
197	0x3d105955	0.035241444
198	0xbc7bc700	-0.0153672695
199	0x3cb99306	0.022653114
200	0x3c3bebc6	0.011469787
201	0xbbc8ad68	-0.0061241873
202	0xbca35875	-0.01993964
203	0x3bd843e5	0.0065998905
204	0xbca5d658	-0.020243809
205	0xbc706c53	-0.014674264
206	0x3a47bf05	0.00076197117
207	0xbc38cb0b	-0.011278878
208	0xba6eb329	-0.00091056764
209	0xbce8afcd	-0.02840414
210	0xbca537da	-0.020168234
211	0xbc987ed3	-0.018615162
212	0xbc3d59ba	-0.011557037
213	0x3d204cc3	0.039135706
214	0x3d0bbc74	0.03411527
215	0x3d338284	0.04382564
216	0x3c4747b2	0.01216309
217	0xbc7adef2	-0.015311943
218	0xbb0d3bbb	-0.0021550495
219	0xbc3c1800	-0.011480331
220	0xbd24aa49	-0.04020146
221	0x3c356883	0.011072281
222	0xbc9d878c	-0.019229673
223	0xbc0f3471	-0.00874053
224	0x3cfcfb36	0.030881505
225	0x3d15539d	0.036456693
226	0x3d0d3e0c	0.034483
227	0xbb2fc3c6	-0.002681957
228	0xbae7abbb	-0.0017675081
229	0xbce60a56	-0.0280811
230	0xbd2173ff	-0.039417263
231	0xbc43ceee	-0.011951191
232	0xbcd99fa8	-0.026565388
233	0x3cb38e08	0.021918312
234	0x39b8e031	0.0003526225
235	0xbd0e7bf3	-0.034786176
236	0xbc61bdb2	-0.013778137
237	0x3d32ab36	0.04362031
238	0xbc34c3f7	-0.01103305
239	0xbb76f6e9	-0.003768379
240	0x3cda0ff7	0.02661894
241	0x3d7015f0	0.05861467
242	0x3d82cc35	0.06386606
243	0x3c7f8f34	0.015598107
244	0x3b87212f	0.004123829
245	0x3c0f30e6	0.008739686
246	0xbc1e900b	-0.009677897
247	0x3c49fd8a	0.012328515
248	0xbd652f95	-0.05595358
249	0xbcfad523	-0.03061921
250	0xbc31b4d4	-0.010846335
251	0x3cb59446	0.022165429
252	0xbcce7bce	-0.025205519
253	0xba7eb861	-0.00097168057
254	0x3c7d9891	0.015478269
255	0x3ca876c2	0.02056444

fc2.weight f4 [10, 20]
0	0xbe7fd722	-0.2498441
1	0xbe7f68d3	-0.24942331
2	0xbe5f087c	-0.2178058
3	0xbec16b26	-0.3777706
4	0x3d877f17	0.06616037
5	0xbd7a24e2	-0.06107033
6	0xbe4cfcab	-0.2001826
7	0xbeb9534e	-0.3619637
8	0x3e84b37c	0.25918186
9	0xbebfe828	-0.3748181
10	0x3ede9354	0.43471777
11	0x3f0b9b51	0.5453387
12	0xbeb93ffc	-0.3618163
13	0x3d0a9676	0.033834897
14	0xbd8f9db4	-0.07012501
15	0x3f03b98f	0.51455015
16	0xbee93315	-0.45546785
17	0x3f06accf	0.52607435
18	0xbe5073c1	-0.20356657
19	0xbec2f4aa	-0.3807729
20	0x3ce77da3	0.02825815
21	0x3d180fa5	0.037124295
22	0xbe167589	-0.14693274
23	0x3f2bf300	0.67167664
24	0x3dd37594	0.103251606
25	0x3e8b35e3	0.2718955
26	0xbe8c4622	-0.27397257
27	0xbea6bea2	-0.32567316
28	0xbdb43934	-0.08799973
29	0xbe8989e5	-0.26863018
30	0xbf4b75a0	-0.79476357
31	0xbf19b099	-0.6003509
32	0x3ecb9720	0.39763737
33	0xbe4c20a7	-0.19934331
34	0x3dac19a8	0.08403331
35	0xbe1b8052	-0.15185669
36	0xbe9fa1af	-0.31178042
37	0x3e624fd4	0.22100765
38	0xbdc06892	-0.09394945
39	0x3decb8cd	0.115586855
40	0xbeccb775	-0.39983717
41	0x3f058697	0.5215849
42	0xbe3bdce8	-0.18345988
43	0x3ecf91f9	0.40541056
44	0x3e6f31cf	0.23358844
45	0x3e558c4f	0.20854305
46	0x3df00321	0.11719347
47	0xbe673b5a	-0.22581235
48	0xbea1dd42	-0.3161412
49	0xbe8a52cd	-0.27016297
50	0x3f2e6e46	0.68137014
51	0xbc8f4a45	-0.01749147
52	0x3f2ba58b	0.67049474
53	0x3dd10d96	0.102076694
54	0xbde6e288	-0.11273676
55	0x3eb04d5b	0.34434018
56	0x3ed0ba31	0.40767053
57	0xbe8c6836	-0.27423257
58	0xbe559b29	-0.2085997
59	0xbf0b859b	-0.5450074
60	0xbec4fb50	-0.38472986
61	0xbf029177	-0.5100321
62	0xbe5a0345	-0.2129031
63	0x3bd6ddd1	0.0065572043
64	0x3edf70ef	0.4364085
65	0x3eaefa9f	0.34175584
66	0x3d7250d4	0.059159115
67	0xbefc5e01	-0.4929047
68	0xbe556692	-0.20839909
69	0x3eaacb5e	0.33358282
70	0x3e8431ea	0.2581933
71	0x3ddc3ecf	0.10754167
72	0x3f3adad9	0.72990185
73	0xbe627f31	-0.22118832
74	0x3e012edf	0.12615536
75	0xbe9c1e40	-0.3049183
76	0x3e04e267	0.1297699
77	0xbd856c65	-0.06514815
78	0x3dc69df5	0.09698097
79	0x3f1f25c9	0.6216703
80	0x3e88f80b	0.26751742
81	0x3ed0b24e	0.40761036
82	0x3e4b4fac	0.19854611
83	0xbef65ff5	-0.48120084
84	0xbe04cf0c	-0.12969607
85	0xbd3e6817	-0.046485987
86	0x3e3b0bd6	0.18266234
87	0x3e157922	0.1459699
88	0x3f017322	0.50566304
89	0x3f035ff1	0.5131827
90	0xbec99b20	-0.39376163
91	0xbded554c	-0.11588535
92	0xbe1f60e5	-0.15564306
93	0x3dbf86ae	0.0935186
94	0x3ec0c6f0	0.37651777
95	0xbe30642b	-0.17225711
96	0x3eecae08	0.46226525
97	0xbcd2f231	-0.025750251
98	0xbd62d6c9	-0.055380616
99	0xbeaf209d	-0.3420457
100	0xbe9abb52	-0.3022104
101	0xbe36291e	-0.17789122
102	0xbdc2165f	-0.09476923
103	0xb80391af	-3.1368512e-05
104	0x3e606ce6	0.21916541
105	0xbd147b80	-0.03625059
106	0x3ef16122	0.4714442
107	0x3eb84fe1	0.35998443
108	0xbeb883be	-0.3603801
109	0xbecd0c42	-0.40048414
110	0xbda95d94	-0.08269802
111	0x3ebc64ab	0.36795554
112	0xbe32e81e	-0.17471358
113	0xbda3f6be	-0.08006047
114	0xbf2a0443	-0.6641275
115	0xbeb74ba8	-0.3579991
116	0x3ee19901	0.44062045
117	0x3f4ad20e	0.7922677
118	0xbe03328b	-0.1281225
119	0xbc0ee7ad	-0.008722228
120	0xbe69cbaf	-0.22831605
121	0x3ac96acb	0.001536691
122	0x3d315f43	0.04330374
123	0xbea23647	-0.31682035
124	0xbe8641d1	-0.2622209
125	0xbe85eead	-0.26158658
126	0x3e43f465	0.19136198
127	0x3f022aef	0.5084676
128	0xbebb0e97	-0.3653457
129	0x3e2a0b31	0.16605832
130	0xbf0b83f9	-0.5449825
131	0xbe89b3fa	-0.26895124
132	0x3dfee7aa	0.1244653
133	0x3c9c8e40	0.019110799
134	0x3def0701	0.11671258
135	0x3f6f9533	0.93587035
136	0xbea512f9	-0.32241037
137	0xba5ee1ef	-0.00085022947
138	0xbc18742b	-0.00930504
139	0xbe747d18	-0.23875844
140	0x3f2a08c8	0.6641965
141	0x3eca97d7	0.3956897
142	0xbe4ae893	-0.19815283
143	0xbe95c4d8	-0.29251742
144	0x3f309a79	0.68985707
145	0x3e589408	0.2115022
146	0xbccf0dc5	-0.02527512
147	0xbd8a31a6	-0.06747751
148	0x3de2ac54	0.11068025
149	0xbebf325a	-0.37343103
150	0x3e8dd4a7	0.27701303
151	0xbe5e65e3	-0.21718554
152	0x3a8ccc25	0.0010741992
153	0xbdc0c79a	-0.09413071
154	0x3dafaa00	0.08577347
155	0xbe50bfdf	-0.20385693
156	0xbeefb63f	-0.4681873
157	0xbeccf671	-0.4003177
158	0x3e4462c1	0.19178297
159	0x3f06b449	0.52618843
160	0xbd9894d3	-0.07450261
161	0xbeac093c	-0.33600795
162	0xbe55b8ac	-0.20871228
163	0x3eff8457	0.49905655
164	0xbf16793a	-0.5877873
165	0xbe65de89	-0.22448172
166	0xbe086d92	-0.13323048
167	0x3f030d4e	0.51192176
168	0xbe890f93	-0.26769695
169	0x3eb33f50	0.3500924
170	0x3e2bd92a	0.1678206
171	0x3ead9939	0.33905962
172	0xbe513865	-0.20431669
173	0xbd574ac8	-0.05256155
174	0xbe41a112	-0.189091
175	0xbea4aee8	-0.32164693
176	0xbef9af08	-0.4876635
177	0xbdba1eae	-0.09087883
178	0x3d39b1c0	0.04533553
179	0xbe800d9a	-0.25010377
180	0x3e88b779	0.2670248
181	0xbe2aee48	-0.1669246
182	0x3d5d6e82	0.054060467
183	0xbceff08a	-0.029289503
184	0xbebc6913	-0.36798915
185	0x3e110239	0.14161004
186	0xbec38a1c	-0.38191307
187	0x3e8a359c	0.26994026
188	0x3eb936c3	0.36174592
189	0xbe87fcc9	-0.26560047
190	0x3cdf8814	0.027286567
191	0x3e0d2d54	0.13786823
192	0xbf2342f6	-0.6377405
193	0xbdec38a3	-0.1153424
194	0xbe1ea059	-0.15490855
195	0xbc252433	-0.010079431
196	0x3eae8f1b	0.34093556
197	0xbf0c96b6	-0.54917467
198	0x3e0f36ce	0.1398575
199	0x3f272aaa	0.65299475
